{"format": "graph-model", "generatedBy": "2.4.0", "convertedBy": "TensorFlow.js Converter v3.0.0", "signature": {"inputs": {"input_1:0": {"name": "input_1:0", "dtype": "DT_FLOAT", "tensorShape": {"dim": [{"size": "-1"}, {"size": "-1"}, {"size": "-1"}, {"size": "3"}]}}}, "outputs": {"Identity:0": {"name": "Identity:0", "dtype": "DT_FLOAT", "tensorShape": {"dim": [{"size": "-1"}, {"size": "-1"}, {"size": "-1"}, {"size": "3"}]}}}}, "modelTopology": {"node": [{"name": "StatefulPartitionedCall/Generator/UpSampleConv/ConvBlock/sequential_13/instance_normalization_20/Mean/reduction_indices", "op": "Const", "attr": {"value": {"tensor": {"dtype": "DT_INT32", "tensorShape": {"dim": [{"size": "3"}]}}}, "dtype": {"type": "DT_INT32"}}}, {"name": "StatefulPartitionedCall/Generator/UpSampleConv/ConvBlock/sequential_12/instance_normalization_19/Mean/reduction_indices", "op": "Const", "attr": {"value": {"tensor": {"dtype": "DT_INT32", "tensorShape": {"dim": [{"size": "3"}]}}}, "dtype": {"type": "DT_INT32"}}}, {"name": "StatefulPartitionedCall/Generator/sequential_11/ResBlock_7/sequential_10/instance_normalization_18/Mean/reduction_indices", "op": "Const", "attr": {"value": {"tensor": {"dtype": "DT_INT32", "tensorShape": {"dim": [{"size": "3"}]}}}, "dtype": {"type": "DT_INT32"}}}, {"name": "StatefulPartitionedCall/Generator/sequential_11/ResBlock_7/sequential_10/instance_normalization_17/Mean/reduction_indices", "op": "Const", "attr": {"value": {"tensor": {"dtype": "DT_INT32", "tensorShape": {"dim": [{"size": "3"}]}}}, "dtype": {"type": "DT_INT32"}}}, {"name": "StatefulPartitionedCall/Generator/sequential_11/ResBlock_7/sequential_10/zero_padding2d_19/Pad/paddings", "op": "Const", "attr": {"value": {"tensor": {"dtype": "DT_INT32", "tensorShape": {"dim": [{"size": "4"}, {"size": "2"}]}}}, "dtype": {"type": "DT_INT32"}}}, {"name": "StatefulPartitionedCall/Generator/sequential_11/ResBlock_7/sequential_10/conv2d_19/Conv2D/ReadVariableOp", "op": "Const", "attr": {"value": {"tensor": {"dtype": "DT_FLOAT", "tensorShape": {"dim": [{"size": "3"}, {"size": "3"}, {"size": "256"}, {"size": "256"}]}}}, "dtype": {"type": "DT_FLOAT"}}}, {"name": "StatefulPartitionedCall/Generator/sequential_11/ResBlock_7/sequential_10/conv2d_19/BiasAdd/ReadVariableOp", "op": "Const", "attr": {"value": {"tensor": {"dtype": "DT_FLOAT", "tensorShape": {"dim": [{"size": "256"}]}}}, "dtype": {"type": "DT_FLOAT"}}}, {"name": "StatefulPartitionedCall/Generator/sequential_11/ResBlock_7/sequential_10/instance_normalization_17/reduce_std/reduce_variance/Mean/reduction_indices", "op": "Const", "attr": {"value": {"tensor": {"dtype": "DT_INT32", "tensorShape": {"dim": [{"size": "3"}]}}}, "dtype": {"type": "DT_INT32"}}}, {"name": "StatefulPartitionedCall/Generator/sequential_11/ResBlock_7/sequential_10/instance_normalization_17/reduce_std/reduce_variance/Mean_1/reduction_indices", "op": "Const", "attr": {"value": {"tensor": {"dtype": "DT_INT32", "tensorShape": {"dim": [{"size": "3"}]}}}, "dtype": {"type": "DT_INT32"}}}, {"name": "StatefulPartitionedCall/Generator/sequential_11/ResBlock_7/sequential_10/instance_normalization_17/add/y", "op": "Const", "attr": {"value": {"tensor": {"dtype": "DT_FLOAT", "tensorShape": {}}}, "dtype": {"type": "DT_FLOAT"}}}, {"name": "StatefulPartitionedCall/Generator/sequential_11/ResBlock_7/sequential_10/instance_normalization_17/Reshape", "op": "Const", "attr": {"value": {"tensor": {"dtype": "DT_FLOAT", "tensorShape": {"dim": [{"size": "1"}, {"size": "1"}, {"size": "1"}, {"size": "1"}]}}}, "dtype": {"type": "DT_FLOAT"}}}, {"name": "StatefulPartitionedCall/Generator/sequential_11/ResBlock_7/sequential_10/instance_normalization_17/Reshape_1", "op": "Const", "attr": {"value": {"tensor": {"dtype": "DT_FLOAT", "tensorShape": {"dim": [{"size": "1"}, {"size": "1"}, {"size": "1"}, {"size": "1"}]}}}, "dtype": {"type": "DT_FLOAT"}}}, {"name": "StatefulPartitionedCall/Generator/sequential_11/ResBlock_7/sequential_10/zero_padding2d_20/Pad/paddings", "op": "Const", "attr": {"value": {"tensor": {"dtype": "DT_INT32", "tensorShape": {"dim": [{"size": "4"}, {"size": "2"}]}}}, "dtype": {"type": "DT_INT32"}}}, {"name": "StatefulPartitionedCall/Generator/sequential_11/ResBlock_7/sequential_10/conv2d_20/Conv2D/ReadVariableOp", "op": "Const", "attr": {"value": {"tensor": {"dtype": "DT_FLOAT", "tensorShape": {"dim": [{"size": "3"}, {"size": "3"}, {"size": "256"}, {"size": "256"}]}}}, "dtype": {"type": "DT_FLOAT"}}}, {"name": "StatefulPartitionedCall/Generator/sequential_11/ResBlock_7/sequential_10/conv2d_20/BiasAdd/ReadVariableOp", "op": "Const", "attr": {"value": {"tensor": {"dtype": "DT_FLOAT", "tensorShape": {"dim": [{"size": "256"}]}}}, "dtype": {"type": "DT_FLOAT"}}}, {"name": "StatefulPartitionedCall/Generator/sequential_11/ResBlock_7/sequential_10/instance_normalization_18/reduce_std/reduce_variance/Mean/reduction_indices", "op": "Const", "attr": {"value": {"tensor": {"dtype": "DT_INT32", "tensorShape": {"dim": [{"size": "3"}]}}}, "dtype": {"type": "DT_INT32"}}}, {"name": "StatefulPartitionedCall/Generator/sequential_11/ResBlock_7/sequential_10/instance_normalization_18/reduce_std/reduce_variance/Mean_1/reduction_indices", "op": "Const", "attr": {"value": {"tensor": {"dtype": "DT_INT32", "tensorShape": {"dim": [{"size": "3"}]}}}, "dtype": {"type": "DT_INT32"}}}, {"name": "StatefulPartitionedCall/Generator/sequential_11/ResBlock_7/sequential_10/instance_normalization_18/add/y", "op": "Const", "attr": {"value": {"tensor": {"dtype": "DT_FLOAT", "tensorShape": {}}}, "dtype": {"type": "DT_FLOAT"}}}, {"name": "StatefulPartitionedCall/Generator/sequential_11/ResBlock_7/sequential_10/instance_normalization_18/Reshape", "op": "Const", "attr": {"value": {"tensor": {"dtype": "DT_FLOAT", "tensorShape": {"dim": [{"size": "1"}, {"size": "1"}, {"size": "1"}, {"size": "1"}]}}}, "dtype": {"type": "DT_FLOAT"}}}, {"name": "StatefulPartitionedCall/Generator/sequential_11/ResBlock_7/sequential_10/instance_normalization_18/Reshape_1", "op": "Const", "attr": {"value": {"tensor": {"dtype": "DT_FLOAT", "tensorShape": {"dim": [{"size": "1"}, {"size": "1"}, {"size": "1"}, {"size": "1"}]}}}, "dtype": {"type": "DT_FLOAT"}}}, {"name": "StatefulPartitionedCall/Generator/sequential_11/ResBlock_6/sequential_9/instance_normalization_16/Mean/reduction_indices", "op": "Const", "attr": {"value": {"tensor": {"dtype": "DT_INT32", "tensorShape": {"dim": [{"size": "3"}]}}}, "dtype": {"type": "DT_INT32"}}}, {"name": "StatefulPartitionedCall/Generator/sequential_11/ResBlock_6/sequential_9/instance_normalization_15/Mean/reduction_indices", "op": "Const", "attr": {"value": {"tensor": {"dtype": "DT_INT32", "tensorShape": {"dim": [{"size": "3"}]}}}, "dtype": {"type": "DT_INT32"}}}, {"name": "StatefulPartitionedCall/Generator/sequential_11/ResBlock_6/sequential_9/zero_padding2d_17/Pad/paddings", "op": "Const", "attr": {"value": {"tensor": {"dtype": "DT_INT32", "tensorShape": {"dim": [{"size": "4"}, {"size": "2"}]}}}, "dtype": {"type": "DT_INT32"}}}, {"name": "StatefulPartitionedCall/Generator/sequential_11/ResBlock_6/sequential_9/conv2d_17/Conv2D/ReadVariableOp", "op": "Const", "attr": {"value": {"tensor": {"dtype": "DT_FLOAT", "tensorShape": {"dim": [{"size": "3"}, {"size": "3"}, {"size": "256"}, {"size": "256"}]}}}, "dtype": {"type": "DT_FLOAT"}}}, {"name": "StatefulPartitionedCall/Generator/sequential_11/ResBlock_6/sequential_9/conv2d_17/BiasAdd/ReadVariableOp", "op": "Const", "attr": {"value": {"tensor": {"dtype": "DT_FLOAT", "tensorShape": {"dim": [{"size": "256"}]}}}, "dtype": {"type": "DT_FLOAT"}}}, {"name": "StatefulPartitionedCall/Generator/sequential_11/ResBlock_6/sequential_9/instance_normalization_15/reduce_std/reduce_variance/Mean/reduction_indices", "op": "Const", "attr": {"value": {"tensor": {"dtype": "DT_INT32", "tensorShape": {"dim": [{"size": "3"}]}}}, "dtype": {"type": "DT_INT32"}}}, {"name": "StatefulPartitionedCall/Generator/sequential_11/ResBlock_6/sequential_9/instance_normalization_15/reduce_std/reduce_variance/Mean_1/reduction_indices", "op": "Const", "attr": {"value": {"tensor": {"dtype": "DT_INT32", "tensorShape": {"dim": [{"size": "3"}]}}}, "dtype": {"type": "DT_INT32"}}}, {"name": "StatefulPartitionedCall/Generator/sequential_11/ResBlock_6/sequential_9/instance_normalization_15/add/y", "op": "Const", "attr": {"value": {"tensor": {"dtype": "DT_FLOAT", "tensorShape": {}}}, "dtype": {"type": "DT_FLOAT"}}}, {"name": "StatefulPartitionedCall/Generator/sequential_11/ResBlock_6/sequential_9/instance_normalization_15/Reshape", "op": "Const", "attr": {"value": {"tensor": {"dtype": "DT_FLOAT", "tensorShape": {"dim": [{"size": "1"}, {"size": "1"}, {"size": "1"}, {"size": "1"}]}}}, "dtype": {"type": "DT_FLOAT"}}}, {"name": "StatefulPartitionedCall/Generator/sequential_11/ResBlock_6/sequential_9/instance_normalization_15/Reshape_1", "op": "Const", "attr": {"value": {"tensor": {"dtype": "DT_FLOAT", "tensorShape": {"dim": [{"size": "1"}, {"size": "1"}, {"size": "1"}, {"size": "1"}]}}}, "dtype": {"type": "DT_FLOAT"}}}, {"name": "StatefulPartitionedCall/Generator/sequential_11/ResBlock_6/sequential_9/zero_padding2d_18/Pad/paddings", "op": "Const", "attr": {"value": {"tensor": {"dtype": "DT_INT32", "tensorShape": {"dim": [{"size": "4"}, {"size": "2"}]}}}, "dtype": {"type": "DT_INT32"}}}, {"name": "StatefulPartitionedCall/Generator/sequential_11/ResBlock_6/sequential_9/conv2d_18/Conv2D/ReadVariableOp", "op": "Const", "attr": {"value": {"tensor": {"dtype": "DT_FLOAT", "tensorShape": {"dim": [{"size": "3"}, {"size": "3"}, {"size": "256"}, {"size": "256"}]}}}, "dtype": {"type": "DT_FLOAT"}}}, {"name": "StatefulPartitionedCall/Generator/sequential_11/ResBlock_6/sequential_9/conv2d_18/BiasAdd/ReadVariableOp", "op": "Const", "attr": {"value": {"tensor": {"dtype": "DT_FLOAT", "tensorShape": {"dim": [{"size": "256"}]}}}, "dtype": {"type": "DT_FLOAT"}}}, {"name": "StatefulPartitionedCall/Generator/sequential_11/ResBlock_6/sequential_9/instance_normalization_16/reduce_std/reduce_variance/Mean/reduction_indices", "op": "Const", "attr": {"value": {"tensor": {"dtype": "DT_INT32", "tensorShape": {"dim": [{"size": "3"}]}}}, "dtype": {"type": "DT_INT32"}}}, {"name": "StatefulPartitionedCall/Generator/sequential_11/ResBlock_6/sequential_9/instance_normalization_16/reduce_std/reduce_variance/Mean_1/reduction_indices", "op": "Const", "attr": {"value": {"tensor": {"dtype": "DT_INT32", "tensorShape": {"dim": [{"size": "3"}]}}}, "dtype": {"type": "DT_INT32"}}}, {"name": "StatefulPartitionedCall/Generator/sequential_11/ResBlock_6/sequential_9/instance_normalization_16/add/y", "op": "Const", "attr": {"value": {"tensor": {"dtype": "DT_FLOAT", "tensorShape": {}}}, "dtype": {"type": "DT_FLOAT"}}}, {"name": "StatefulPartitionedCall/Generator/sequential_11/ResBlock_6/sequential_9/instance_normalization_16/Reshape", "op": "Const", "attr": {"value": {"tensor": {"dtype": "DT_FLOAT", "tensorShape": {"dim": [{"size": "1"}, {"size": "1"}, {"size": "1"}, {"size": "1"}]}}}, "dtype": {"type": "DT_FLOAT"}}}, {"name": "StatefulPartitionedCall/Generator/sequential_11/ResBlock_6/sequential_9/instance_normalization_16/Reshape_1", "op": "Const", "attr": {"value": {"tensor": {"dtype": "DT_FLOAT", "tensorShape": {"dim": [{"size": "1"}, {"size": "1"}, {"size": "1"}, {"size": "1"}]}}}, "dtype": {"type": "DT_FLOAT"}}}, {"name": "StatefulPartitionedCall/Generator/sequential_11/ResBlock_5/sequential_8/instance_normalization_14/Mean/reduction_indices", "op": "Const", "attr": {"value": {"tensor": {"dtype": "DT_INT32", "tensorShape": {"dim": [{"size": "3"}]}}}, "dtype": {"type": "DT_INT32"}}}, {"name": "StatefulPartitionedCall/Generator/sequential_11/ResBlock_5/sequential_8/instance_normalization_13/Mean/reduction_indices", "op": "Const", "attr": {"value": {"tensor": {"dtype": "DT_INT32", "tensorShape": {"dim": [{"size": "3"}]}}}, "dtype": {"type": "DT_INT32"}}}, {"name": "StatefulPartitionedCall/Generator/sequential_11/ResBlock_5/sequential_8/zero_padding2d_15/Pad/paddings", "op": "Const", "attr": {"value": {"tensor": {"dtype": "DT_INT32", "tensorShape": {"dim": [{"size": "4"}, {"size": "2"}]}}}, "dtype": {"type": "DT_INT32"}}}, {"name": "StatefulPartitionedCall/Generator/sequential_11/ResBlock_5/sequential_8/conv2d_15/Conv2D/ReadVariableOp", "op": "Const", "attr": {"value": {"tensor": {"dtype": "DT_FLOAT", "tensorShape": {"dim": [{"size": "3"}, {"size": "3"}, {"size": "256"}, {"size": "256"}]}}}, "dtype": {"type": "DT_FLOAT"}}}, {"name": "StatefulPartitionedCall/Generator/sequential_11/ResBlock_5/sequential_8/conv2d_15/BiasAdd/ReadVariableOp", "op": "Const", "attr": {"value": {"tensor": {"dtype": "DT_FLOAT", "tensorShape": {"dim": [{"size": "256"}]}}}, "dtype": {"type": "DT_FLOAT"}}}, {"name": "StatefulPartitionedCall/Generator/sequential_11/ResBlock_5/sequential_8/instance_normalization_13/reduce_std/reduce_variance/Mean/reduction_indices", "op": "Const", "attr": {"value": {"tensor": {"dtype": "DT_INT32", "tensorShape": {"dim": [{"size": "3"}]}}}, "dtype": {"type": "DT_INT32"}}}, {"name": "StatefulPartitionedCall/Generator/sequential_11/ResBlock_5/sequential_8/instance_normalization_13/reduce_std/reduce_variance/Mean_1/reduction_indices", "op": "Const", "attr": {"value": {"tensor": {"dtype": "DT_INT32", "tensorShape": {"dim": [{"size": "3"}]}}}, "dtype": {"type": "DT_INT32"}}}, {"name": "StatefulPartitionedCall/Generator/sequential_11/ResBlock_5/sequential_8/instance_normalization_13/add/y", "op": "Const", "attr": {"value": {"tensor": {"dtype": "DT_FLOAT", "tensorShape": {}}}, "dtype": {"type": "DT_FLOAT"}}}, {"name": "StatefulPartitionedCall/Generator/sequential_11/ResBlock_5/sequential_8/instance_normalization_13/Reshape", "op": "Const", "attr": {"value": {"tensor": {"dtype": "DT_FLOAT", "tensorShape": {"dim": [{"size": "1"}, {"size": "1"}, {"size": "1"}, {"size": "1"}]}}}, "dtype": {"type": "DT_FLOAT"}}}, {"name": "StatefulPartitionedCall/Generator/sequential_11/ResBlock_5/sequential_8/instance_normalization_13/Reshape_1", "op": "Const", "attr": {"value": {"tensor": {"dtype": "DT_FLOAT", "tensorShape": {"dim": [{"size": "1"}, {"size": "1"}, {"size": "1"}, {"size": "1"}]}}}, "dtype": {"type": "DT_FLOAT"}}}, {"name": "StatefulPartitionedCall/Generator/sequential_11/ResBlock_5/sequential_8/zero_padding2d_16/Pad/paddings", "op": "Const", "attr": {"value": {"tensor": {"dtype": "DT_INT32", "tensorShape": {"dim": [{"size": "4"}, {"size": "2"}]}}}, "dtype": {"type": "DT_INT32"}}}, {"name": "StatefulPartitionedCall/Generator/sequential_11/ResBlock_5/sequential_8/conv2d_16/Conv2D/ReadVariableOp", "op": "Const", "attr": {"value": {"tensor": {"dtype": "DT_FLOAT", "tensorShape": {"dim": [{"size": "3"}, {"size": "3"}, {"size": "256"}, {"size": "256"}]}}}, "dtype": {"type": "DT_FLOAT"}}}, {"name": "StatefulPartitionedCall/Generator/sequential_11/ResBlock_5/sequential_8/conv2d_16/BiasAdd/ReadVariableOp", "op": "Const", "attr": {"value": {"tensor": {"dtype": "DT_FLOAT", "tensorShape": {"dim": [{"size": "256"}]}}}, "dtype": {"type": "DT_FLOAT"}}}, {"name": "StatefulPartitionedCall/Generator/sequential_11/ResBlock_5/sequential_8/instance_normalization_14/reduce_std/reduce_variance/Mean/reduction_indices", "op": "Const", "attr": {"value": {"tensor": {"dtype": "DT_INT32", "tensorShape": {"dim": [{"size": "3"}]}}}, "dtype": {"type": "DT_INT32"}}}, {"name": "StatefulPartitionedCall/Generator/sequential_11/ResBlock_5/sequential_8/instance_normalization_14/reduce_std/reduce_variance/Mean_1/reduction_indices", "op": "Const", "attr": {"value": {"tensor": {"dtype": "DT_INT32", "tensorShape": {"dim": [{"size": "3"}]}}}, "dtype": {"type": "DT_INT32"}}}, {"name": "StatefulPartitionedCall/Generator/sequential_11/ResBlock_5/sequential_8/instance_normalization_14/add/y", "op": "Const", "attr": {"value": {"tensor": {"dtype": "DT_FLOAT", "tensorShape": {}}}, "dtype": {"type": "DT_FLOAT"}}}, {"name": "StatefulPartitionedCall/Generator/sequential_11/ResBlock_5/sequential_8/instance_normalization_14/Reshape", "op": "Const", "attr": {"value": {"tensor": {"dtype": "DT_FLOAT", "tensorShape": {"dim": [{"size": "1"}, {"size": "1"}, {"size": "1"}, {"size": "1"}]}}}, "dtype": {"type": "DT_FLOAT"}}}, {"name": "StatefulPartitionedCall/Generator/sequential_11/ResBlock_5/sequential_8/instance_normalization_14/Reshape_1", "op": "Const", "attr": {"value": {"tensor": {"dtype": "DT_FLOAT", "tensorShape": {"dim": [{"size": "1"}, {"size": "1"}, {"size": "1"}, {"size": "1"}]}}}, "dtype": {"type": "DT_FLOAT"}}}, {"name": "StatefulPartitionedCall/Generator/sequential_11/ResBlock_4/sequential_7/instance_normalization_12/Mean/reduction_indices", "op": "Const", "attr": {"value": {"tensor": {"dtype": "DT_INT32", "tensorShape": {"dim": [{"size": "3"}]}}}, "dtype": {"type": "DT_INT32"}}}, {"name": "StatefulPartitionedCall/Generator/sequential_11/ResBlock_4/sequential_7/instance_normalization_11/Mean/reduction_indices", "op": "Const", "attr": {"value": {"tensor": {"dtype": "DT_INT32", "tensorShape": {"dim": [{"size": "3"}]}}}, "dtype": {"type": "DT_INT32"}}}, {"name": "StatefulPartitionedCall/Generator/sequential_11/ResBlock_4/sequential_7/zero_padding2d_13/Pad/paddings", "op": "Const", "attr": {"value": {"tensor": {"dtype": "DT_INT32", "tensorShape": {"dim": [{"size": "4"}, {"size": "2"}]}}}, "dtype": {"type": "DT_INT32"}}}, {"name": "StatefulPartitionedCall/Generator/sequential_11/ResBlock_4/sequential_7/conv2d_13/Conv2D/ReadVariableOp", "op": "Const", "attr": {"value": {"tensor": {"dtype": "DT_FLOAT", "tensorShape": {"dim": [{"size": "3"}, {"size": "3"}, {"size": "256"}, {"size": "256"}]}}}, "dtype": {"type": "DT_FLOAT"}}}, {"name": "StatefulPartitionedCall/Generator/sequential_11/ResBlock_4/sequential_7/conv2d_13/BiasAdd/ReadVariableOp", "op": "Const", "attr": {"value": {"tensor": {"dtype": "DT_FLOAT", "tensorShape": {"dim": [{"size": "256"}]}}}, "dtype": {"type": "DT_FLOAT"}}}, {"name": "StatefulPartitionedCall/Generator/sequential_11/ResBlock_4/sequential_7/instance_normalization_11/reduce_std/reduce_variance/Mean/reduction_indices", "op": "Const", "attr": {"value": {"tensor": {"dtype": "DT_INT32", "tensorShape": {"dim": [{"size": "3"}]}}}, "dtype": {"type": "DT_INT32"}}}, {"name": "StatefulPartitionedCall/Generator/sequential_11/ResBlock_4/sequential_7/instance_normalization_11/reduce_std/reduce_variance/Mean_1/reduction_indices", "op": "Const", "attr": {"value": {"tensor": {"dtype": "DT_INT32", "tensorShape": {"dim": [{"size": "3"}]}}}, "dtype": {"type": "DT_INT32"}}}, {"name": "StatefulPartitionedCall/Generator/sequential_11/ResBlock_4/sequential_7/instance_normalization_11/add/y", "op": "Const", "attr": {"value": {"tensor": {"dtype": "DT_FLOAT", "tensorShape": {}}}, "dtype": {"type": "DT_FLOAT"}}}, {"name": "StatefulPartitionedCall/Generator/sequential_11/ResBlock_4/sequential_7/instance_normalization_11/Reshape", "op": "Const", "attr": {"value": {"tensor": {"dtype": "DT_FLOAT", "tensorShape": {"dim": [{"size": "1"}, {"size": "1"}, {"size": "1"}, {"size": "1"}]}}}, "dtype": {"type": "DT_FLOAT"}}}, {"name": "StatefulPartitionedCall/Generator/sequential_11/ResBlock_4/sequential_7/instance_normalization_11/Reshape_1", "op": "Const", "attr": {"value": {"tensor": {"dtype": "DT_FLOAT", "tensorShape": {"dim": [{"size": "1"}, {"size": "1"}, {"size": "1"}, {"size": "1"}]}}}, "dtype": {"type": "DT_FLOAT"}}}, {"name": "StatefulPartitionedCall/Generator/sequential_11/ResBlock_4/sequential_7/zero_padding2d_14/Pad/paddings", "op": "Const", "attr": {"value": {"tensor": {"dtype": "DT_INT32", "tensorShape": {"dim": [{"size": "4"}, {"size": "2"}]}}}, "dtype": {"type": "DT_INT32"}}}, {"name": "StatefulPartitionedCall/Generator/sequential_11/ResBlock_4/sequential_7/conv2d_14/Conv2D/ReadVariableOp", "op": "Const", "attr": {"value": {"tensor": {"dtype": "DT_FLOAT", "tensorShape": {"dim": [{"size": "3"}, {"size": "3"}, {"size": "256"}, {"size": "256"}]}}}, "dtype": {"type": "DT_FLOAT"}}}, {"name": "StatefulPartitionedCall/Generator/sequential_11/ResBlock_4/sequential_7/conv2d_14/BiasAdd/ReadVariableOp", "op": "Const", "attr": {"value": {"tensor": {"dtype": "DT_FLOAT", "tensorShape": {"dim": [{"size": "256"}]}}}, "dtype": {"type": "DT_FLOAT"}}}, {"name": "StatefulPartitionedCall/Generator/sequential_11/ResBlock_4/sequential_7/instance_normalization_12/reduce_std/reduce_variance/Mean/reduction_indices", "op": "Const", "attr": {"value": {"tensor": {"dtype": "DT_INT32", "tensorShape": {"dim": [{"size": "3"}]}}}, "dtype": {"type": "DT_INT32"}}}, {"name": "StatefulPartitionedCall/Generator/sequential_11/ResBlock_4/sequential_7/instance_normalization_12/reduce_std/reduce_variance/Mean_1/reduction_indices", "op": "Const", "attr": {"value": {"tensor": {"dtype": "DT_INT32", "tensorShape": {"dim": [{"size": "3"}]}}}, "dtype": {"type": "DT_INT32"}}}, {"name": "StatefulPartitionedCall/Generator/sequential_11/ResBlock_4/sequential_7/instance_normalization_12/add/y", "op": "Const", "attr": {"value": {"tensor": {"dtype": "DT_FLOAT", "tensorShape": {}}}, "dtype": {"type": "DT_FLOAT"}}}, {"name": "StatefulPartitionedCall/Generator/sequential_11/ResBlock_4/sequential_7/instance_normalization_12/Reshape", "op": "Const", "attr": {"value": {"tensor": {"dtype": "DT_FLOAT", "tensorShape": {"dim": [{"size": "1"}, {"size": "1"}, {"size": "1"}, {"size": "1"}]}}}, "dtype": {"type": "DT_FLOAT"}}}, {"name": "StatefulPartitionedCall/Generator/sequential_11/ResBlock_4/sequential_7/instance_normalization_12/Reshape_1", "op": "Const", "attr": {"value": {"tensor": {"dtype": "DT_FLOAT", "tensorShape": {"dim": [{"size": "1"}, {"size": "1"}, {"size": "1"}, {"size": "1"}]}}}, "dtype": {"type": "DT_FLOAT"}}}, {"name": "StatefulPartitionedCall/Generator/sequential_11/ResBlock_3/sequential_6/instance_normalization_10/Mean/reduction_indices", "op": "Const", "attr": {"value": {"tensor": {"dtype": "DT_INT32", "tensorShape": {"dim": [{"size": "3"}]}}}, "dtype": {"type": "DT_INT32"}}}, {"name": "StatefulPartitionedCall/Generator/sequential_11/ResBlock_3/sequential_6/instance_normalization_9/Mean/reduction_indices", "op": "Const", "attr": {"value": {"tensor": {"dtype": "DT_INT32", "tensorShape": {"dim": [{"size": "3"}]}}}, "dtype": {"type": "DT_INT32"}}}, {"name": "StatefulPartitionedCall/Generator/sequential_11/ResBlock_3/sequential_6/zero_padding2d_11/Pad/paddings", "op": "Const", "attr": {"value": {"tensor": {"dtype": "DT_INT32", "tensorShape": {"dim": [{"size": "4"}, {"size": "2"}]}}}, "dtype": {"type": "DT_INT32"}}}, {"name": "StatefulPartitionedCall/Generator/sequential_11/ResBlock_3/sequential_6/conv2d_11/Conv2D/ReadVariableOp", "op": "Const", "attr": {"value": {"tensor": {"dtype": "DT_FLOAT", "tensorShape": {"dim": [{"size": "3"}, {"size": "3"}, {"size": "256"}, {"size": "256"}]}}}, "dtype": {"type": "DT_FLOAT"}}}, {"name": "StatefulPartitionedCall/Generator/sequential_11/ResBlock_3/sequential_6/conv2d_11/BiasAdd/ReadVariableOp", "op": "Const", "attr": {"value": {"tensor": {"dtype": "DT_FLOAT", "tensorShape": {"dim": [{"size": "256"}]}}}, "dtype": {"type": "DT_FLOAT"}}}, {"name": "StatefulPartitionedCall/Generator/sequential_11/ResBlock_3/sequential_6/instance_normalization_9/reduce_std/reduce_variance/Mean/reduction_indices", "op": "Const", "attr": {"value": {"tensor": {"dtype": "DT_INT32", "tensorShape": {"dim": [{"size": "3"}]}}}, "dtype": {"type": "DT_INT32"}}}, {"name": "StatefulPartitionedCall/Generator/sequential_11/ResBlock_3/sequential_6/instance_normalization_9/reduce_std/reduce_variance/Mean_1/reduction_indices", "op": "Const", "attr": {"value": {"tensor": {"dtype": "DT_INT32", "tensorShape": {"dim": [{"size": "3"}]}}}, "dtype": {"type": "DT_INT32"}}}, {"name": "StatefulPartitionedCall/Generator/sequential_11/ResBlock_3/sequential_6/instance_normalization_9/add/y", "op": "Const", "attr": {"value": {"tensor": {"dtype": "DT_FLOAT", "tensorShape": {}}}, "dtype": {"type": "DT_FLOAT"}}}, {"name": "StatefulPartitionedCall/Generator/sequential_11/ResBlock_3/sequential_6/instance_normalization_9/Reshape", "op": "Const", "attr": {"value": {"tensor": {"dtype": "DT_FLOAT", "tensorShape": {"dim": [{"size": "1"}, {"size": "1"}, {"size": "1"}, {"size": "1"}]}}}, "dtype": {"type": "DT_FLOAT"}}}, {"name": "StatefulPartitionedCall/Generator/sequential_11/ResBlock_3/sequential_6/instance_normalization_9/Reshape_1", "op": "Const", "attr": {"value": {"tensor": {"dtype": "DT_FLOAT", "tensorShape": {"dim": [{"size": "1"}, {"size": "1"}, {"size": "1"}, {"size": "1"}]}}}, "dtype": {"type": "DT_FLOAT"}}}, {"name": "StatefulPartitionedCall/Generator/sequential_11/ResBlock_3/sequential_6/zero_padding2d_12/Pad/paddings", "op": "Const", "attr": {"value": {"tensor": {"dtype": "DT_INT32", "tensorShape": {"dim": [{"size": "4"}, {"size": "2"}]}}}, "dtype": {"type": "DT_INT32"}}}, {"name": "StatefulPartitionedCall/Generator/sequential_11/ResBlock_3/sequential_6/conv2d_12/Conv2D/ReadVariableOp", "op": "Const", "attr": {"value": {"tensor": {"dtype": "DT_FLOAT", "tensorShape": {"dim": [{"size": "3"}, {"size": "3"}, {"size": "256"}, {"size": "256"}]}}}, "dtype": {"type": "DT_FLOAT"}}}, {"name": "StatefulPartitionedCall/Generator/sequential_11/ResBlock_3/sequential_6/conv2d_12/BiasAdd/ReadVariableOp", "op": "Const", "attr": {"value": {"tensor": {"dtype": "DT_FLOAT", "tensorShape": {"dim": [{"size": "256"}]}}}, "dtype": {"type": "DT_FLOAT"}}}, {"name": "StatefulPartitionedCall/Generator/sequential_11/ResBlock_3/sequential_6/instance_normalization_10/reduce_std/reduce_variance/Mean/reduction_indices", "op": "Const", "attr": {"value": {"tensor": {"dtype": "DT_INT32", "tensorShape": {"dim": [{"size": "3"}]}}}, "dtype": {"type": "DT_INT32"}}}, {"name": "StatefulPartitionedCall/Generator/sequential_11/ResBlock_3/sequential_6/instance_normalization_10/reduce_std/reduce_variance/Mean_1/reduction_indices", "op": "Const", "attr": {"value": {"tensor": {"dtype": "DT_INT32", "tensorShape": {"dim": [{"size": "3"}]}}}, "dtype": {"type": "DT_INT32"}}}, {"name": "StatefulPartitionedCall/Generator/sequential_11/ResBlock_3/sequential_6/instance_normalization_10/add/y", "op": "Const", "attr": {"value": {"tensor": {"dtype": "DT_FLOAT", "tensorShape": {}}}, "dtype": {"type": "DT_FLOAT"}}}, {"name": "StatefulPartitionedCall/Generator/sequential_11/ResBlock_3/sequential_6/instance_normalization_10/Reshape", "op": "Const", "attr": {"value": {"tensor": {"dtype": "DT_FLOAT", "tensorShape": {"dim": [{"size": "1"}, {"size": "1"}, {"size": "1"}, {"size": "1"}]}}}, "dtype": {"type": "DT_FLOAT"}}}, {"name": "StatefulPartitionedCall/Generator/sequential_11/ResBlock_3/sequential_6/instance_normalization_10/Reshape_1", "op": "Const", "attr": {"value": {"tensor": {"dtype": "DT_FLOAT", "tensorShape": {"dim": [{"size": "1"}, {"size": "1"}, {"size": "1"}, {"size": "1"}]}}}, "dtype": {"type": "DT_FLOAT"}}}, {"name": "StatefulPartitionedCall/Generator/sequential_11/ResBlock_2/sequential_5/instance_normalization_8/Mean/reduction_indices", "op": "Const", "attr": {"value": {"tensor": {"dtype": "DT_INT32", "tensorShape": {"dim": [{"size": "3"}]}}}, "dtype": {"type": "DT_INT32"}}}, {"name": "StatefulPartitionedCall/Generator/sequential_11/ResBlock_2/sequential_5/instance_normalization_7/Mean/reduction_indices", "op": "Const", "attr": {"value": {"tensor": {"dtype": "DT_INT32", "tensorShape": {"dim": [{"size": "3"}]}}}, "dtype": {"type": "DT_INT32"}}}, {"name": "StatefulPartitionedCall/Generator/sequential_11/ResBlock_2/sequential_5/zero_padding2d_9/Pad/paddings", "op": "Const", "attr": {"value": {"tensor": {"dtype": "DT_INT32", "tensorShape": {"dim": [{"size": "4"}, {"size": "2"}]}}}, "dtype": {"type": "DT_INT32"}}}, {"name": "StatefulPartitionedCall/Generator/sequential_11/ResBlock_2/sequential_5/conv2d_9/Conv2D/ReadVariableOp", "op": "Const", "attr": {"value": {"tensor": {"dtype": "DT_FLOAT", "tensorShape": {"dim": [{"size": "3"}, {"size": "3"}, {"size": "256"}, {"size": "256"}]}}}, "dtype": {"type": "DT_FLOAT"}}}, {"name": "StatefulPartitionedCall/Generator/sequential_11/ResBlock_2/sequential_5/conv2d_9/BiasAdd/ReadVariableOp", "op": "Const", "attr": {"value": {"tensor": {"dtype": "DT_FLOAT", "tensorShape": {"dim": [{"size": "256"}]}}}, "dtype": {"type": "DT_FLOAT"}}}, {"name": "StatefulPartitionedCall/Generator/sequential_11/ResBlock_2/sequential_5/instance_normalization_7/reduce_std/reduce_variance/Mean/reduction_indices", "op": "Const", "attr": {"value": {"tensor": {"dtype": "DT_INT32", "tensorShape": {"dim": [{"size": "3"}]}}}, "dtype": {"type": "DT_INT32"}}}, {"name": "StatefulPartitionedCall/Generator/sequential_11/ResBlock_2/sequential_5/instance_normalization_7/reduce_std/reduce_variance/Mean_1/reduction_indices", "op": "Const", "attr": {"value": {"tensor": {"dtype": "DT_INT32", "tensorShape": {"dim": [{"size": "3"}]}}}, "dtype": {"type": "DT_INT32"}}}, {"name": "StatefulPartitionedCall/Generator/sequential_11/ResBlock_2/sequential_5/instance_normalization_7/add/y", "op": "Const", "attr": {"value": {"tensor": {"dtype": "DT_FLOAT", "tensorShape": {}}}, "dtype": {"type": "DT_FLOAT"}}}, {"name": "StatefulPartitionedCall/Generator/sequential_11/ResBlock_2/sequential_5/instance_normalization_7/Reshape", "op": "Const", "attr": {"value": {"tensor": {"dtype": "DT_FLOAT", "tensorShape": {"dim": [{"size": "1"}, {"size": "1"}, {"size": "1"}, {"size": "1"}]}}}, "dtype": {"type": "DT_FLOAT"}}}, {"name": "StatefulPartitionedCall/Generator/sequential_11/ResBlock_2/sequential_5/instance_normalization_7/Reshape_1", "op": "Const", "attr": {"value": {"tensor": {"dtype": "DT_FLOAT", "tensorShape": {"dim": [{"size": "1"}, {"size": "1"}, {"size": "1"}, {"size": "1"}]}}}, "dtype": {"type": "DT_FLOAT"}}}, {"name": "StatefulPartitionedCall/Generator/sequential_11/ResBlock_2/sequential_5/zero_padding2d_10/Pad/paddings", "op": "Const", "attr": {"value": {"tensor": {"dtype": "DT_INT32", "tensorShape": {"dim": [{"size": "4"}, {"size": "2"}]}}}, "dtype": {"type": "DT_INT32"}}}, {"name": "StatefulPartitionedCall/Generator/sequential_11/ResBlock_2/sequential_5/conv2d_10/Conv2D/ReadVariableOp", "op": "Const", "attr": {"value": {"tensor": {"dtype": "DT_FLOAT", "tensorShape": {"dim": [{"size": "3"}, {"size": "3"}, {"size": "256"}, {"size": "256"}]}}}, "dtype": {"type": "DT_FLOAT"}}}, {"name": "StatefulPartitionedCall/Generator/sequential_11/ResBlock_2/sequential_5/conv2d_10/BiasAdd/ReadVariableOp", "op": "Const", "attr": {"value": {"tensor": {"dtype": "DT_FLOAT", "tensorShape": {"dim": [{"size": "256"}]}}}, "dtype": {"type": "DT_FLOAT"}}}, {"name": "StatefulPartitionedCall/Generator/sequential_11/ResBlock_2/sequential_5/instance_normalization_8/reduce_std/reduce_variance/Mean/reduction_indices", "op": "Const", "attr": {"value": {"tensor": {"dtype": "DT_INT32", "tensorShape": {"dim": [{"size": "3"}]}}}, "dtype": {"type": "DT_INT32"}}}, {"name": "StatefulPartitionedCall/Generator/sequential_11/ResBlock_2/sequential_5/instance_normalization_8/reduce_std/reduce_variance/Mean_1/reduction_indices", "op": "Const", "attr": {"value": {"tensor": {"dtype": "DT_INT32", "tensorShape": {"dim": [{"size": "3"}]}}}, "dtype": {"type": "DT_INT32"}}}, {"name": "StatefulPartitionedCall/Generator/sequential_11/ResBlock_2/sequential_5/instance_normalization_8/add/y", "op": "Const", "attr": {"value": {"tensor": {"dtype": "DT_FLOAT", "tensorShape": {}}}, "dtype": {"type": "DT_FLOAT"}}}, {"name": "StatefulPartitionedCall/Generator/sequential_11/ResBlock_2/sequential_5/instance_normalization_8/Reshape", "op": "Const", "attr": {"value": {"tensor": {"dtype": "DT_FLOAT", "tensorShape": {"dim": [{"size": "1"}, {"size": "1"}, {"size": "1"}, {"size": "1"}]}}}, "dtype": {"type": "DT_FLOAT"}}}, {"name": "StatefulPartitionedCall/Generator/sequential_11/ResBlock_2/sequential_5/instance_normalization_8/Reshape_1", "op": "Const", "attr": {"value": {"tensor": {"dtype": "DT_FLOAT", "tensorShape": {"dim": [{"size": "1"}, {"size": "1"}, {"size": "1"}, {"size": "1"}]}}}, "dtype": {"type": "DT_FLOAT"}}}, {"name": "StatefulPartitionedCall/Generator/sequential_11/ResBlock_1/sequential_4/instance_normalization_6/Mean/reduction_indices", "op": "Const", "attr": {"value": {"tensor": {"dtype": "DT_INT32", "tensorShape": {"dim": [{"size": "3"}]}}}, "dtype": {"type": "DT_INT32"}}}, {"name": "StatefulPartitionedCall/Generator/sequential_11/ResBlock_1/sequential_4/instance_normalization_5/Mean/reduction_indices", "op": "Const", "attr": {"value": {"tensor": {"dtype": "DT_INT32", "tensorShape": {"dim": [{"size": "3"}]}}}, "dtype": {"type": "DT_INT32"}}}, {"name": "StatefulPartitionedCall/Generator/sequential_11/ResBlock_1/sequential_4/zero_padding2d_7/Pad/paddings", "op": "Const", "attr": {"value": {"tensor": {"dtype": "DT_INT32", "tensorShape": {"dim": [{"size": "4"}, {"size": "2"}]}}}, "dtype": {"type": "DT_INT32"}}}, {"name": "StatefulPartitionedCall/Generator/sequential_11/ResBlock_1/sequential_4/conv2d_7/Conv2D/ReadVariableOp", "op": "Const", "attr": {"value": {"tensor": {"dtype": "DT_FLOAT", "tensorShape": {"dim": [{"size": "3"}, {"size": "3"}, {"size": "256"}, {"size": "256"}]}}}, "dtype": {"type": "DT_FLOAT"}}}, {"name": "StatefulPartitionedCall/Generator/sequential_11/ResBlock_1/sequential_4/conv2d_7/BiasAdd/ReadVariableOp", "op": "Const", "attr": {"value": {"tensor": {"dtype": "DT_FLOAT", "tensorShape": {"dim": [{"size": "256"}]}}}, "dtype": {"type": "DT_FLOAT"}}}, {"name": "StatefulPartitionedCall/Generator/sequential_11/ResBlock_1/sequential_4/instance_normalization_5/reduce_std/reduce_variance/Mean/reduction_indices", "op": "Const", "attr": {"value": {"tensor": {"dtype": "DT_INT32", "tensorShape": {"dim": [{"size": "3"}]}}}, "dtype": {"type": "DT_INT32"}}}, {"name": "StatefulPartitionedCall/Generator/sequential_11/ResBlock_1/sequential_4/instance_normalization_5/reduce_std/reduce_variance/Mean_1/reduction_indices", "op": "Const", "attr": {"value": {"tensor": {"dtype": "DT_INT32", "tensorShape": {"dim": [{"size": "3"}]}}}, "dtype": {"type": "DT_INT32"}}}, {"name": "StatefulPartitionedCall/Generator/sequential_11/ResBlock_1/sequential_4/instance_normalization_5/add/y", "op": "Const", "attr": {"value": {"tensor": {"dtype": "DT_FLOAT", "tensorShape": {}}}, "dtype": {"type": "DT_FLOAT"}}}, {"name": "StatefulPartitionedCall/Generator/sequential_11/ResBlock_1/sequential_4/instance_normalization_5/Reshape", "op": "Const", "attr": {"value": {"tensor": {"dtype": "DT_FLOAT", "tensorShape": {"dim": [{"size": "1"}, {"size": "1"}, {"size": "1"}, {"size": "1"}]}}}, "dtype": {"type": "DT_FLOAT"}}}, {"name": "StatefulPartitionedCall/Generator/sequential_11/ResBlock_1/sequential_4/instance_normalization_5/Reshape_1", "op": "Const", "attr": {"value": {"tensor": {"dtype": "DT_FLOAT", "tensorShape": {"dim": [{"size": "1"}, {"size": "1"}, {"size": "1"}, {"size": "1"}]}}}, "dtype": {"type": "DT_FLOAT"}}}, {"name": "StatefulPartitionedCall/Generator/sequential_11/ResBlock_1/sequential_4/zero_padding2d_8/Pad/paddings", "op": "Const", "attr": {"value": {"tensor": {"dtype": "DT_INT32", "tensorShape": {"dim": [{"size": "4"}, {"size": "2"}]}}}, "dtype": {"type": "DT_INT32"}}}, {"name": "StatefulPartitionedCall/Generator/sequential_11/ResBlock_1/sequential_4/conv2d_8/Conv2D/ReadVariableOp", "op": "Const", "attr": {"value": {"tensor": {"dtype": "DT_FLOAT", "tensorShape": {"dim": [{"size": "3"}, {"size": "3"}, {"size": "256"}, {"size": "256"}]}}}, "dtype": {"type": "DT_FLOAT"}}}, {"name": "StatefulPartitionedCall/Generator/sequential_11/ResBlock_1/sequential_4/conv2d_8/BiasAdd/ReadVariableOp", "op": "Const", "attr": {"value": {"tensor": {"dtype": "DT_FLOAT", "tensorShape": {"dim": [{"size": "256"}]}}}, "dtype": {"type": "DT_FLOAT"}}}, {"name": "StatefulPartitionedCall/Generator/sequential_11/ResBlock_1/sequential_4/instance_normalization_6/reduce_std/reduce_variance/Mean/reduction_indices", "op": "Const", "attr": {"value": {"tensor": {"dtype": "DT_INT32", "tensorShape": {"dim": [{"size": "3"}]}}}, "dtype": {"type": "DT_INT32"}}}, {"name": "StatefulPartitionedCall/Generator/sequential_11/ResBlock_1/sequential_4/instance_normalization_6/reduce_std/reduce_variance/Mean_1/reduction_indices", "op": "Const", "attr": {"value": {"tensor": {"dtype": "DT_INT32", "tensorShape": {"dim": [{"size": "3"}]}}}, "dtype": {"type": "DT_INT32"}}}, {"name": "StatefulPartitionedCall/Generator/sequential_11/ResBlock_1/sequential_4/instance_normalization_6/add/y", "op": "Const", "attr": {"value": {"tensor": {"dtype": "DT_FLOAT", "tensorShape": {}}}, "dtype": {"type": "DT_FLOAT"}}}, {"name": "StatefulPartitionedCall/Generator/sequential_11/ResBlock_1/sequential_4/instance_normalization_6/Reshape", "op": "Const", "attr": {"value": {"tensor": {"dtype": "DT_FLOAT", "tensorShape": {"dim": [{"size": "1"}, {"size": "1"}, {"size": "1"}, {"size": "1"}]}}}, "dtype": {"type": "DT_FLOAT"}}}, {"name": "StatefulPartitionedCall/Generator/sequential_11/ResBlock_1/sequential_4/instance_normalization_6/Reshape_1", "op": "Const", "attr": {"value": {"tensor": {"dtype": "DT_FLOAT", "tensorShape": {"dim": [{"size": "1"}, {"size": "1"}, {"size": "1"}, {"size": "1"}]}}}, "dtype": {"type": "DT_FLOAT"}}}, {"name": "StatefulPartitionedCall/Generator/sequential_11/ResBlock_0/sequential_3/instance_normalization_4/Mean/reduction_indices", "op": "Const", "attr": {"value": {"tensor": {"dtype": "DT_INT32", "tensorShape": {"dim": [{"size": "3"}]}}}, "dtype": {"type": "DT_INT32"}}}, {"name": "StatefulPartitionedCall/Generator/sequential_11/ResBlock_0/sequential_3/instance_normalization_3/Mean/reduction_indices", "op": "Const", "attr": {"value": {"tensor": {"dtype": "DT_INT32", "tensorShape": {"dim": [{"size": "3"}]}}}, "dtype": {"type": "DT_INT32"}}}, {"name": "StatefulPartitionedCall/Generator/sequential_11/ResBlock_0/sequential_3/zero_padding2d_5/Pad/paddings", "op": "Const", "attr": {"value": {"tensor": {"dtype": "DT_INT32", "tensorShape": {"dim": [{"size": "4"}, {"size": "2"}]}}}, "dtype": {"type": "DT_INT32"}}}, {"name": "StatefulPartitionedCall/Generator/sequential_11/ResBlock_0/sequential_3/conv2d_5/Conv2D/ReadVariableOp", "op": "Const", "attr": {"value": {"tensor": {"dtype": "DT_FLOAT", "tensorShape": {"dim": [{"size": "3"}, {"size": "3"}, {"size": "256"}, {"size": "256"}]}}}, "dtype": {"type": "DT_FLOAT"}}}, {"name": "StatefulPartitionedCall/Generator/sequential_11/ResBlock_0/sequential_3/conv2d_5/BiasAdd/ReadVariableOp", "op": "Const", "attr": {"value": {"tensor": {"dtype": "DT_FLOAT", "tensorShape": {"dim": [{"size": "256"}]}}}, "dtype": {"type": "DT_FLOAT"}}}, {"name": "StatefulPartitionedCall/Generator/sequential_11/ResBlock_0/sequential_3/instance_normalization_3/reduce_std/reduce_variance/Mean/reduction_indices", "op": "Const", "attr": {"value": {"tensor": {"dtype": "DT_INT32", "tensorShape": {"dim": [{"size": "3"}]}}}, "dtype": {"type": "DT_INT32"}}}, {"name": "StatefulPartitionedCall/Generator/sequential_11/ResBlock_0/sequential_3/instance_normalization_3/reduce_std/reduce_variance/Mean_1/reduction_indices", "op": "Const", "attr": {"value": {"tensor": {"dtype": "DT_INT32", "tensorShape": {"dim": [{"size": "3"}]}}}, "dtype": {"type": "DT_INT32"}}}, {"name": "StatefulPartitionedCall/Generator/sequential_11/ResBlock_0/sequential_3/instance_normalization_3/add/y", "op": "Const", "attr": {"value": {"tensor": {"dtype": "DT_FLOAT", "tensorShape": {}}}, "dtype": {"type": "DT_FLOAT"}}}, {"name": "StatefulPartitionedCall/Generator/sequential_11/ResBlock_0/sequential_3/instance_normalization_3/Reshape", "op": "Const", "attr": {"value": {"tensor": {"dtype": "DT_FLOAT", "tensorShape": {"dim": [{"size": "1"}, {"size": "1"}, {"size": "1"}, {"size": "1"}]}}}, "dtype": {"type": "DT_FLOAT"}}}, {"name": "StatefulPartitionedCall/Generator/sequential_11/ResBlock_0/sequential_3/instance_normalization_3/Reshape_1", "op": "Const", "attr": {"value": {"tensor": {"dtype": "DT_FLOAT", "tensorShape": {"dim": [{"size": "1"}, {"size": "1"}, {"size": "1"}, {"size": "1"}]}}}, "dtype": {"type": "DT_FLOAT"}}}, {"name": "StatefulPartitionedCall/Generator/sequential_11/ResBlock_0/sequential_3/zero_padding2d_6/Pad/paddings", "op": "Const", "attr": {"value": {"tensor": {"dtype": "DT_INT32", "tensorShape": {"dim": [{"size": "4"}, {"size": "2"}]}}}, "dtype": {"type": "DT_INT32"}}}, {"name": "StatefulPartitionedCall/Generator/sequential_11/ResBlock_0/sequential_3/conv2d_6/Conv2D/ReadVariableOp", "op": "Const", "attr": {"value": {"tensor": {"dtype": "DT_FLOAT", "tensorShape": {"dim": [{"size": "3"}, {"size": "3"}, {"size": "256"}, {"size": "256"}]}}}, "dtype": {"type": "DT_FLOAT"}}}, {"name": "StatefulPartitionedCall/Generator/sequential_11/ResBlock_0/sequential_3/conv2d_6/BiasAdd/ReadVariableOp", "op": "Const", "attr": {"value": {"tensor": {"dtype": "DT_FLOAT", "tensorShape": {"dim": [{"size": "256"}]}}}, "dtype": {"type": "DT_FLOAT"}}}, {"name": "StatefulPartitionedCall/Generator/sequential_11/ResBlock_0/sequential_3/instance_normalization_4/reduce_std/reduce_variance/Mean/reduction_indices", "op": "Const", "attr": {"value": {"tensor": {"dtype": "DT_INT32", "tensorShape": {"dim": [{"size": "3"}]}}}, "dtype": {"type": "DT_INT32"}}}, {"name": "StatefulPartitionedCall/Generator/sequential_11/ResBlock_0/sequential_3/instance_normalization_4/reduce_std/reduce_variance/Mean_1/reduction_indices", "op": "Const", "attr": {"value": {"tensor": {"dtype": "DT_INT32", "tensorShape": {"dim": [{"size": "3"}]}}}, "dtype": {"type": "DT_INT32"}}}, {"name": "StatefulPartitionedCall/Generator/sequential_11/ResBlock_0/sequential_3/instance_normalization_4/add/y", "op": "Const", "attr": {"value": {"tensor": {"dtype": "DT_FLOAT", "tensorShape": {}}}, "dtype": {"type": "DT_FLOAT"}}}, {"name": "StatefulPartitionedCall/Generator/sequential_11/ResBlock_0/sequential_3/instance_normalization_4/Reshape", "op": "Const", "attr": {"value": {"tensor": {"dtype": "DT_FLOAT", "tensorShape": {"dim": [{"size": "1"}, {"size": "1"}, {"size": "1"}, {"size": "1"}]}}}, "dtype": {"type": "DT_FLOAT"}}}, {"name": "StatefulPartitionedCall/Generator/sequential_11/ResBlock_0/sequential_3/instance_normalization_4/Reshape_1", "op": "Const", "attr": {"value": {"tensor": {"dtype": "DT_FLOAT", "tensorShape": {"dim": [{"size": "1"}, {"size": "1"}, {"size": "1"}, {"size": "1"}]}}}, "dtype": {"type": "DT_FLOAT"}}}, {"name": "StatefulPartitionedCall/Generator/ConvBlock/sequential_2/instance_normalization_2/Mean/reduction_indices", "op": "Const", "attr": {"value": {"tensor": {"dtype": "DT_INT32", "tensorShape": {"dim": [{"size": "3"}]}}}, "dtype": {"type": "DT_INT32"}}}, {"name": "StatefulPartitionedCall/Generator/ConvBlock/sequential_1/instance_normalization_1/Mean/reduction_indices", "op": "Const", "attr": {"value": {"tensor": {"dtype": "DT_INT32", "tensorShape": {"dim": [{"size": "3"}]}}}, "dtype": {"type": "DT_INT32"}}}, {"name": "StatefulPartitionedCall/Generator/FlatConv/sequential/instance_normalization/Mean/reduction_indices", "op": "Const", "attr": {"value": {"tensor": {"dtype": "DT_INT32", "tensorShape": {"dim": [{"size": "3"}]}}}, "dtype": {"type": "DT_INT32"}}}, {"name": "StatefulPartitionedCall/Generator/FlatConv/sequential/zero_padding2d/Pad/paddings", "op": "Const", "attr": {"value": {"tensor": {"dtype": "DT_INT32", "tensorShape": {"dim": [{"size": "4"}, {"size": "2"}]}}}, "dtype": {"type": "DT_INT32"}}}, {"name": "StatefulPartitionedCall/Generator/FlatConv/sequential/conv2d/Conv2D/ReadVariableOp", "op": "Const", "attr": {"value": {"tensor": {"dtype": "DT_FLOAT", "tensorShape": {"dim": [{"size": "7"}, {"size": "7"}, {"size": "3"}, {"size": "64"}]}}}, "dtype": {"type": "DT_FLOAT"}}}, {"name": "StatefulPartitionedCall/Generator/FlatConv/sequential/conv2d/BiasAdd/ReadVariableOp", "op": "Const", "attr": {"value": {"tensor": {"dtype": "DT_FLOAT", "tensorShape": {"dim": [{"size": "64"}]}}}, "dtype": {"type": "DT_FLOAT"}}}, {"name": "StatefulPartitionedCall/Generator/FlatConv/sequential/instance_normalization/reduce_std/reduce_variance/Mean/reduction_indices", "op": "Const", "attr": {"value": {"tensor": {"dtype": "DT_INT32", "tensorShape": {"dim": [{"size": "3"}]}}}, "dtype": {"type": "DT_INT32"}}}, {"name": "StatefulPartitionedCall/Generator/FlatConv/sequential/instance_normalization/reduce_std/reduce_variance/Mean_1/reduction_indices", "op": "Const", "attr": {"value": {"tensor": {"dtype": "DT_INT32", "tensorShape": {"dim": [{"size": "3"}]}}}, "dtype": {"type": "DT_INT32"}}}, {"name": "StatefulPartitionedCall/Generator/FlatConv/sequential/instance_normalization/add/y", "op": "Const", "attr": {"value": {"tensor": {"dtype": "DT_FLOAT", "tensorShape": {}}}, "dtype": {"type": "DT_FLOAT"}}}, {"name": "StatefulPartitionedCall/Generator/FlatConv/sequential/instance_normalization/Reshape", "op": "Const", "attr": {"value": {"tensor": {"dtype": "DT_FLOAT", "tensorShape": {"dim": [{"size": "1"}, {"size": "1"}, {"size": "1"}, {"size": "1"}]}}}, "dtype": {"type": "DT_FLOAT"}}}, {"name": "StatefulPartitionedCall/Generator/FlatConv/sequential/instance_normalization/Reshape_1", "op": "Const", "attr": {"value": {"tensor": {"dtype": "DT_FLOAT", "tensorShape": {"dim": [{"size": "1"}, {"size": "1"}, {"size": "1"}, {"size": "1"}]}}}, "dtype": {"type": "DT_FLOAT"}}}, {"name": "StatefulPartitionedCall/Generator/ConvBlock/sequential_1/zero_padding2d_1/Pad/paddings", "op": "Const", "attr": {"value": {"tensor": {"dtype": "DT_INT32", "tensorShape": {"dim": [{"size": "4"}, {"size": "2"}]}}}, "dtype": {"type": "DT_INT32"}}}, {"name": "StatefulPartitionedCall/Generator/ConvBlock/sequential_1/conv2d_1/Conv2D/ReadVariableOp", "op": "Const", "attr": {"value": {"tensor": {"dtype": "DT_FLOAT", "tensorShape": {"dim": [{"size": "3"}, {"size": "3"}, {"size": "64"}, {"size": "128"}]}}}, "dtype": {"type": "DT_FLOAT"}}}, {"name": "StatefulPartitionedCall/Generator/ConvBlock/sequential_1/conv2d_1/BiasAdd/ReadVariableOp", "op": "Const", "attr": {"value": {"tensor": {"dtype": "DT_FLOAT", "tensorShape": {"dim": [{"size": "128"}]}}}, "dtype": {"type": "DT_FLOAT"}}}, {"name": "StatefulPartitionedCall/Generator/ConvBlock/sequential_1/zero_padding2d_2/Pad/paddings", "op": "Const", "attr": {"value": {"tensor": {"dtype": "DT_INT32", "tensorShape": {"dim": [{"size": "4"}, {"size": "2"}]}}}, "dtype": {"type": "DT_INT32"}}}, {"name": "StatefulPartitionedCall/Generator/ConvBlock/sequential_1/conv2d_2/Conv2D/ReadVariableOp", "op": "Const", "attr": {"value": {"tensor": {"dtype": "DT_FLOAT", "tensorShape": {"dim": [{"size": "3"}, {"size": "3"}, {"size": "128"}, {"size": "128"}]}}}, "dtype": {"type": "DT_FLOAT"}}}, {"name": "StatefulPartitionedCall/Generator/ConvBlock/sequential_1/conv2d_2/BiasAdd/ReadVariableOp", "op": "Const", "attr": {"value": {"tensor": {"dtype": "DT_FLOAT", "tensorShape": {"dim": [{"size": "128"}]}}}, "dtype": {"type": "DT_FLOAT"}}}, {"name": "StatefulPartitionedCall/Generator/ConvBlock/sequential_1/instance_normalization_1/reduce_std/reduce_variance/Mean/reduction_indices", "op": "Const", "attr": {"value": {"tensor": {"dtype": "DT_INT32", "tensorShape": {"dim": [{"size": "3"}]}}}, "dtype": {"type": "DT_INT32"}}}, {"name": "StatefulPartitionedCall/Generator/ConvBlock/sequential_1/instance_normalization_1/reduce_std/reduce_variance/Mean_1/reduction_indices", "op": "Const", "attr": {"value": {"tensor": {"dtype": "DT_INT32", "tensorShape": {"dim": [{"size": "3"}]}}}, "dtype": {"type": "DT_INT32"}}}, {"name": "StatefulPartitionedCall/Generator/ConvBlock/sequential_1/instance_normalization_1/add/y", "op": "Const", "attr": {"value": {"tensor": {"dtype": "DT_FLOAT", "tensorShape": {}}}, "dtype": {"type": "DT_FLOAT"}}}, {"name": "StatefulPartitionedCall/Generator/ConvBlock/sequential_1/instance_normalization_1/Reshape", "op": "Const", "attr": {"value": {"tensor": {"dtype": "DT_FLOAT", "tensorShape": {"dim": [{"size": "1"}, {"size": "1"}, {"size": "1"}, {"size": "1"}]}}}, "dtype": {"type": "DT_FLOAT"}}}, {"name": "StatefulPartitionedCall/Generator/ConvBlock/sequential_1/instance_normalization_1/Reshape_1", "op": "Const", "attr": {"value": {"tensor": {"dtype": "DT_FLOAT", "tensorShape": {"dim": [{"size": "1"}, {"size": "1"}, {"size": "1"}, {"size": "1"}]}}}, "dtype": {"type": "DT_FLOAT"}}}, {"name": "StatefulPartitionedCall/Generator/ConvBlock/sequential_2/zero_padding2d_3/Pad/paddings", "op": "Const", "attr": {"value": {"tensor": {"dtype": "DT_INT32", "tensorShape": {"dim": [{"size": "4"}, {"size": "2"}]}}}, "dtype": {"type": "DT_INT32"}}}, {"name": "StatefulPartitionedCall/Generator/ConvBlock/sequential_2/conv2d_3/Conv2D/ReadVariableOp", "op": "Const", "attr": {"value": {"tensor": {"dtype": "DT_FLOAT", "tensorShape": {"dim": [{"size": "3"}, {"size": "3"}, {"size": "128"}, {"size": "256"}]}}}, "dtype": {"type": "DT_FLOAT"}}}, {"name": "StatefulPartitionedCall/Generator/ConvBlock/sequential_2/conv2d_3/BiasAdd/ReadVariableOp", "op": "Const", "attr": {"value": {"tensor": {"dtype": "DT_FLOAT", "tensorShape": {"dim": [{"size": "256"}]}}}, "dtype": {"type": "DT_FLOAT"}}}, {"name": "StatefulPartitionedCall/Generator/ConvBlock/sequential_2/zero_padding2d_4/Pad/paddings", "op": "Const", "attr": {"value": {"tensor": {"dtype": "DT_INT32", "tensorShape": {"dim": [{"size": "4"}, {"size": "2"}]}}}, "dtype": {"type": "DT_INT32"}}}, {"name": "StatefulPartitionedCall/Generator/ConvBlock/sequential_2/conv2d_4/Conv2D/ReadVariableOp", "op": "Const", "attr": {"value": {"tensor": {"dtype": "DT_FLOAT", "tensorShape": {"dim": [{"size": "3"}, {"size": "3"}, {"size": "256"}, {"size": "256"}]}}}, "dtype": {"type": "DT_FLOAT"}}}, {"name": "StatefulPartitionedCall/Generator/ConvBlock/sequential_2/conv2d_4/BiasAdd/ReadVariableOp", "op": "Const", "attr": {"value": {"tensor": {"dtype": "DT_FLOAT", "tensorShape": {"dim": [{"size": "256"}]}}}, "dtype": {"type": "DT_FLOAT"}}}, {"name": "StatefulPartitionedCall/Generator/ConvBlock/sequential_2/instance_normalization_2/reduce_std/reduce_variance/Mean/reduction_indices", "op": "Const", "attr": {"value": {"tensor": {"dtype": "DT_INT32", "tensorShape": {"dim": [{"size": "3"}]}}}, "dtype": {"type": "DT_INT32"}}}, {"name": "StatefulPartitionedCall/Generator/ConvBlock/sequential_2/instance_normalization_2/reduce_std/reduce_variance/Mean_1/reduction_indices", "op": "Const", "attr": {"value": {"tensor": {"dtype": "DT_INT32", "tensorShape": {"dim": [{"size": "3"}]}}}, "dtype": {"type": "DT_INT32"}}}, {"name": "StatefulPartitionedCall/Generator/ConvBlock/sequential_2/instance_normalization_2/add/y", "op": "Const", "attr": {"value": {"tensor": {"dtype": "DT_FLOAT", "tensorShape": {}}}, "dtype": {"type": "DT_FLOAT"}}}, {"name": "StatefulPartitionedCall/Generator/ConvBlock/sequential_2/instance_normalization_2/Reshape", "op": "Const", "attr": {"value": {"tensor": {"dtype": "DT_FLOAT", "tensorShape": {"dim": [{"size": "1"}, {"size": "1"}, {"size": "1"}, {"size": "1"}]}}}, "dtype": {"type": "DT_FLOAT"}}}, {"name": "StatefulPartitionedCall/Generator/ConvBlock/sequential_2/instance_normalization_2/Reshape_1", "op": "Const", "attr": {"value": {"tensor": {"dtype": "DT_FLOAT", "tensorShape": {"dim": [{"size": "1"}, {"size": "1"}, {"size": "1"}, {"size": "1"}]}}}, "dtype": {"type": "DT_FLOAT"}}}, {"name": "StatefulPartitionedCall/Generator/UpSampleConv/strided_slice/stack", "op": "Const", "attr": {"value": {"tensor": {"dtype": "DT_INT32", "tensorShape": {"dim": [{"size": "1"}]}}}, "dtype": {"type": "DT_INT32"}}}, {"name": "StatefulPartitionedCall/Generator/UpSampleConv/strided_slice/stack_1", "op": "Const", "attr": {"value": {"tensor": {"dtype": "DT_INT32", "tensorShape": {"dim": [{"size": "1"}]}}}, "dtype": {"type": "DT_INT32"}}}, {"name": "StatefulPartitionedCall/Generator/UpSampleConv/strided_slice/stack_2", "op": "Const", "attr": {"value": {"tensor": {"dtype": "DT_INT32", "tensorShape": {"dim": [{"size": "1"}]}}}, "dtype": {"type": "DT_INT32"}}}, {"name": "StatefulPartitionedCall/Generator/UpSampleConv/Const", "op": "Const", "attr": {"value": {"tensor": {"dtype": "DT_INT32", "tensorShape": {"dim": [{"size": "2"}]}}}, "dtype": {"type": "DT_INT32"}}}, {"name": "StatefulPartitionedCall/Generator/UpSampleConv/ConvBlock/sequential_12/zero_padding2d_21/Pad/paddings", "op": "Const", "attr": {"value": {"tensor": {"dtype": "DT_INT32", "tensorShape": {"dim": [{"size": "4"}, {"size": "2"}]}}}, "dtype": {"type": "DT_INT32"}}}, {"name": "StatefulPartitionedCall/Generator/UpSampleConv/ConvBlock/sequential_12/conv2d_21/Conv2D/ReadVariableOp", "op": "Const", "attr": {"value": {"tensor": {"dtype": "DT_FLOAT", "tensorShape": {"dim": [{"size": "3"}, {"size": "3"}, {"size": "256"}, {"size": "128"}]}}}, "dtype": {"type": "DT_FLOAT"}}}, {"name": "StatefulPartitionedCall/Generator/UpSampleConv/ConvBlock/sequential_12/conv2d_21/BiasAdd/ReadVariableOp", "op": "Const", "attr": {"value": {"tensor": {"dtype": "DT_FLOAT", "tensorShape": {"dim": [{"size": "128"}]}}}, "dtype": {"type": "DT_FLOAT"}}}, {"name": "StatefulPartitionedCall/Generator/UpSampleConv/ConvBlock/sequential_12/zero_padding2d_22/Pad/paddings", "op": "Const", "attr": {"value": {"tensor": {"dtype": "DT_INT32", "tensorShape": {"dim": [{"size": "4"}, {"size": "2"}]}}}, "dtype": {"type": "DT_INT32"}}}, {"name": "StatefulPartitionedCall/Generator/UpSampleConv/ConvBlock/sequential_12/conv2d_22/Conv2D/ReadVariableOp", "op": "Const", "attr": {"value": {"tensor": {"dtype": "DT_FLOAT", "tensorShape": {"dim": [{"size": "3"}, {"size": "3"}, {"size": "128"}, {"size": "128"}]}}}, "dtype": {"type": "DT_FLOAT"}}}, {"name": "StatefulPartitionedCall/Generator/UpSampleConv/ConvBlock/sequential_12/conv2d_22/BiasAdd/ReadVariableOp", "op": "Const", "attr": {"value": {"tensor": {"dtype": "DT_FLOAT", "tensorShape": {"dim": [{"size": "128"}]}}}, "dtype": {"type": "DT_FLOAT"}}}, {"name": "StatefulPartitionedCall/Generator/UpSampleConv/ConvBlock/sequential_12/instance_normalization_19/reduce_std/reduce_variance/Mean/reduction_indices", "op": "Const", "attr": {"value": {"tensor": {"dtype": "DT_INT32", "tensorShape": {"dim": [{"size": "3"}]}}}, "dtype": {"type": "DT_INT32"}}}, {"name": "StatefulPartitionedCall/Generator/UpSampleConv/ConvBlock/sequential_12/instance_normalization_19/reduce_std/reduce_variance/Mean_1/reduction_indices", "op": "Const", "attr": {"value": {"tensor": {"dtype": "DT_INT32", "tensorShape": {"dim": [{"size": "3"}]}}}, "dtype": {"type": "DT_INT32"}}}, {"name": "StatefulPartitionedCall/Generator/UpSampleConv/ConvBlock/sequential_12/instance_normalization_19/add/y", "op": "Const", "attr": {"value": {"tensor": {"dtype": "DT_FLOAT", "tensorShape": {}}}, "dtype": {"type": "DT_FLOAT"}}}, {"name": "StatefulPartitionedCall/Generator/UpSampleConv/ConvBlock/sequential_12/instance_normalization_19/Reshape", "op": "Const", "attr": {"value": {"tensor": {"dtype": "DT_FLOAT", "tensorShape": {"dim": [{"size": "1"}, {"size": "1"}, {"size": "1"}, {"size": "1"}]}}}, "dtype": {"type": "DT_FLOAT"}}}, {"name": "StatefulPartitionedCall/Generator/UpSampleConv/ConvBlock/sequential_12/instance_normalization_19/Reshape_1", "op": "Const", "attr": {"value": {"tensor": {"dtype": "DT_FLOAT", "tensorShape": {"dim": [{"size": "1"}, {"size": "1"}, {"size": "1"}, {"size": "1"}]}}}, "dtype": {"type": "DT_FLOAT"}}}, {"name": "StatefulPartitionedCall/Generator/UpSampleConv/strided_slice_1/stack", "op": "Const", "attr": {"value": {"tensor": {"dtype": "DT_INT32", "tensorShape": {"dim": [{"size": "1"}]}}}, "dtype": {"type": "DT_INT32"}}}, {"name": "StatefulPartitionedCall/Generator/UpSampleConv/strided_slice_1/stack_1", "op": "Const", "attr": {"value": {"tensor": {"dtype": "DT_INT32", "tensorShape": {"dim": [{"size": "1"}]}}}, "dtype": {"type": "DT_INT32"}}}, {"name": "StatefulPartitionedCall/Generator/UpSampleConv/strided_slice_1/stack_2", "op": "Const", "attr": {"value": {"tensor": {"dtype": "DT_INT32", "tensorShape": {"dim": [{"size": "1"}]}}}, "dtype": {"type": "DT_INT32"}}}, {"name": "StatefulPartitionedCall/Generator/UpSampleConv/Const_1", "op": "Const", "attr": {"value": {"tensor": {"dtype": "DT_INT32", "tensorShape": {"dim": [{"size": "2"}]}}}, "dtype": {"type": "DT_INT32"}}}, {"name": "StatefulPartitionedCall/Generator/UpSampleConv/ConvBlock/sequential_13/zero_padding2d_23/Pad/paddings", "op": "Const", "attr": {"value": {"tensor": {"dtype": "DT_INT32", "tensorShape": {"dim": [{"size": "4"}, {"size": "2"}]}}}, "dtype": {"type": "DT_INT32"}}}, {"name": "StatefulPartitionedCall/Generator/UpSampleConv/ConvBlock/sequential_13/conv2d_23/Conv2D/ReadVariableOp", "op": "Const", "attr": {"value": {"tensor": {"dtype": "DT_FLOAT", "tensorShape": {"dim": [{"size": "3"}, {"size": "3"}, {"size": "128"}, {"size": "64"}]}}}, "dtype": {"type": "DT_FLOAT"}}}, {"name": "StatefulPartitionedCall/Generator/UpSampleConv/ConvBlock/sequential_13/conv2d_23/BiasAdd/ReadVariableOp", "op": "Const", "attr": {"value": {"tensor": {"dtype": "DT_FLOAT", "tensorShape": {"dim": [{"size": "64"}]}}}, "dtype": {"type": "DT_FLOAT"}}}, {"name": "StatefulPartitionedCall/Generator/UpSampleConv/ConvBlock/sequential_13/zero_padding2d_24/Pad/paddings", "op": "Const", "attr": {"value": {"tensor": {"dtype": "DT_INT32", "tensorShape": {"dim": [{"size": "4"}, {"size": "2"}]}}}, "dtype": {"type": "DT_INT32"}}}, {"name": "StatefulPartitionedCall/Generator/UpSampleConv/ConvBlock/sequential_13/conv2d_24/Conv2D/ReadVariableOp", "op": "Const", "attr": {"value": {"tensor": {"dtype": "DT_FLOAT", "tensorShape": {"dim": [{"size": "3"}, {"size": "3"}, {"size": "64"}, {"size": "64"}]}}}, "dtype": {"type": "DT_FLOAT"}}}, {"name": "StatefulPartitionedCall/Generator/UpSampleConv/ConvBlock/sequential_13/conv2d_24/BiasAdd/ReadVariableOp", "op": "Const", "attr": {"value": {"tensor": {"dtype": "DT_FLOAT", "tensorShape": {"dim": [{"size": "64"}]}}}, "dtype": {"type": "DT_FLOAT"}}}, {"name": "StatefulPartitionedCall/Generator/UpSampleConv/ConvBlock/sequential_13/instance_normalization_20/reduce_std/reduce_variance/Mean/reduction_indices", "op": "Const", "attr": {"value": {"tensor": {"dtype": "DT_INT32", "tensorShape": {"dim": [{"size": "3"}]}}}, "dtype": {"type": "DT_INT32"}}}, {"name": "StatefulPartitionedCall/Generator/UpSampleConv/ConvBlock/sequential_13/instance_normalization_20/reduce_std/reduce_variance/Mean_1/reduction_indices", "op": "Const", "attr": {"value": {"tensor": {"dtype": "DT_INT32", "tensorShape": {"dim": [{"size": "3"}]}}}, "dtype": {"type": "DT_INT32"}}}, {"name": "StatefulPartitionedCall/Generator/UpSampleConv/ConvBlock/sequential_13/instance_normalization_20/add/y", "op": "Const", "attr": {"value": {"tensor": {"dtype": "DT_FLOAT", "tensorShape": {}}}, "dtype": {"type": "DT_FLOAT"}}}, {"name": "StatefulPartitionedCall/Generator/UpSampleConv/ConvBlock/sequential_13/instance_normalization_20/Reshape", "op": "Const", "attr": {"value": {"tensor": {"dtype": "DT_FLOAT", "tensorShape": {"dim": [{"size": "1"}, {"size": "1"}, {"size": "1"}, {"size": "1"}]}}}, "dtype": {"type": "DT_FLOAT"}}}, {"name": "StatefulPartitionedCall/Generator/UpSampleConv/ConvBlock/sequential_13/instance_normalization_20/Reshape_1", "op": "Const", "attr": {"value": {"tensor": {"dtype": "DT_FLOAT", "tensorShape": {"dim": [{"size": "1"}, {"size": "1"}, {"size": "1"}, {"size": "1"}]}}}, "dtype": {"type": "DT_FLOAT"}}}, {"name": "StatefulPartitionedCall/Generator/sequential_14/zero_padding2d_25/Pad/paddings", "op": "Const", "attr": {"value": {"tensor": {"dtype": "DT_INT32", "tensorShape": {"dim": [{"size": "4"}, {"size": "2"}]}}}, "dtype": {"type": "DT_INT32"}}}, {"name": "StatefulPartitionedCall/Generator/sequential_14/conv2d_25/Conv2D/ReadVariableOp", "op": "Const", "attr": {"value": {"tensor": {"dtype": "DT_FLOAT", "tensorShape": {"dim": [{"size": "7"}, {"size": "7"}, {"size": "64"}, {"size": "3"}]}}}, "dtype": {"type": "DT_FLOAT"}}}, {"name": "StatefulPartitionedCall/Generator/sequential_14/conv2d_25/BiasAdd/ReadVariableOp", "op": "Const", "attr": {"value": {"tensor": {"dtype": "DT_FLOAT", "tensorShape": {"dim": [{"size": "3"}]}}}, "dtype": {"type": "DT_FLOAT"}}}, {"name": "input_1", "op": "Placeholder", "attr": {"shape": {"shape": {"dim": [{"size": "-1"}, {"size": "-1"}, {"size": "-1"}, {"size": "3"}]}}, "dtype": {"type": "DT_FLOAT"}}}, {"name": "StatefulPartitionedCall/Generator/FlatConv/sequential/zero_padding2d/Pad", "op": "Pad", "input": ["input_1", "StatefulPartitionedCall/Generator/FlatConv/sequential/zero_padding2d/Pad/paddings"], "attr": {"T": {"type": "DT_FLOAT"}, "Tpaddings": {"type": "DT_INT32"}}}, {"name": "StatefulPartitionedCall/Generator/FlatConv/sequential/conv2d/BiasAdd", "op": "_FusedConv2D", "input": ["StatefulPartitionedCall/Generator/FlatConv/sequential/zero_padding2d/Pad", "StatefulPartitionedCall/Generator/FlatConv/sequential/conv2d/Conv2D/ReadVariableOp", "StatefulPartitionedCall/Generator/FlatConv/sequential/conv2d/BiasAdd/ReadVariableOp"], "device": "/device:CPU:0", "attr": {"dilations": {"list": {"i": ["1", "1", "1", "1"]}}, "T": {"type": "DT_FLOAT"}, "data_format": {"s": "TkhXQw=="}, "strides": {"list": {"i": ["1", "1", "1", "1"]}}, "explicit_paddings": {"list": {}}, "use_cudnn_on_gpu": {"b": true}, "num_args": {"i": "1"}, "epsilon": {"f": 0.0}, "padding": {"s": "VkFMSUQ="}, "fused_ops": {"list": {"s": ["Qmlhc0FkZA=="]}}}}, {"name": "StatefulPartitionedCall/Generator/FlatConv/sequential/instance_normalization/Mean", "op": "Mean", "input": ["StatefulPartitionedCall/Generator/FlatConv/sequential/conv2d/BiasAdd", "StatefulPartitionedCall/Generator/FlatConv/sequential/instance_normalization/Mean/reduction_indices"], "attr": {"keep_dims": {"b": true}, "Tidx": {"type": "DT_INT32"}, "T": {"type": "DT_FLOAT"}}}, {"name": "StatefulPartitionedCall/Generator/FlatConv/sequential/instance_normalization/reduce_std/reduce_variance/Mean", "op": "Mean", "input": ["StatefulPartitionedCall/Generator/FlatConv/sequential/conv2d/BiasAdd", "StatefulPartitionedCall/Generator/FlatConv/sequential/instance_normalization/reduce_std/reduce_variance/Mean/reduction_indices"], "attr": {"keep_dims": {"b": true}, "Tidx": {"type": "DT_INT32"}, "T": {"type": "DT_FLOAT"}}}, {"name": "StatefulPartitionedCall/Generator/FlatConv/sequential/instance_normalization/sub", "op": "Sub", "input": ["StatefulPartitionedCall/Generator/FlatConv/sequential/conv2d/BiasAdd", "StatefulPartitionedCall/Generator/FlatConv/sequential/instance_normalization/Mean"], "attr": {"T": {"type": "DT_FLOAT"}}}, {"name": "StatefulPartitionedCall/Generator/FlatConv/sequential/instance_normalization/reduce_std/reduce_variance/sub", "op": "SquaredDifference", "input": ["StatefulPartitionedCall/Generator/FlatConv/sequential/conv2d/BiasAdd", "StatefulPartitionedCall/Generator/FlatConv/sequential/instance_normalization/reduce_std/reduce_variance/Mean"], "attr": {"T": {"type": "DT_FLOAT"}}}, {"name": "StatefulPartitionedCall/Generator/FlatConv/sequential/instance_normalization/reduce_std/reduce_variance/Mean_1", "op": "Mean", "input": ["StatefulPartitionedCall/Generator/FlatConv/sequential/instance_normalization/reduce_std/reduce_variance/sub", "StatefulPartitionedCall/Generator/FlatConv/sequential/instance_normalization/reduce_std/reduce_variance/Mean_1/reduction_indices"], "attr": {"keep_dims": {"b": true}, "Tidx": {"type": "DT_INT32"}, "T": {"type": "DT_FLOAT"}}}, {"name": "StatefulPartitionedCall/Generator/FlatConv/sequential/instance_normalization/reduce_std/Sqrt", "op": "Sqrt", "input": ["StatefulPartitionedCall/Generator/FlatConv/sequential/instance_normalization/reduce_std/reduce_variance/Mean_1"], "attr": {"T": {"type": "DT_FLOAT"}}}, {"name": "StatefulPartitionedCall/Generator/FlatConv/sequential/instance_normalization/add", "op": "AddV2", "input": ["StatefulPartitionedCall/Generator/FlatConv/sequential/instance_normalization/reduce_std/Sqrt", "StatefulPartitionedCall/Generator/FlatConv/sequential/instance_normalization/add/y"], "attr": {"T": {"type": "DT_FLOAT"}}}, {"name": "StatefulPartitionedCall/Generator/FlatConv/sequential/instance_normalization/truediv", "op": "RealDiv", "input": ["StatefulPartitionedCall/Generator/FlatConv/sequential/instance_normalization/sub", "StatefulPartitionedCall/Generator/FlatConv/sequential/instance_normalization/add"], "attr": {"T": {"type": "DT_FLOAT"}}}, {"name": "StatefulPartitionedCall/Generator/FlatConv/sequential/instance_normalization/mul", "op": "Mul", "input": ["StatefulPartitionedCall/Generator/FlatConv/sequential/instance_normalization/truediv", "StatefulPartitionedCall/Generator/FlatConv/sequential/instance_normalization/Reshape"], "attr": {"T": {"type": "DT_FLOAT"}}}, {"name": "StatefulPartitionedCall/Generator/FlatConv/sequential/instance_normalization/add_1", "op": "AddV2", "input": ["StatefulPartitionedCall/Generator/FlatConv/sequential/instance_normalization/mul", "StatefulPartitionedCall/Generator/FlatConv/sequential/instance_normalization/Reshape_1"], "attr": {"T": {"type": "DT_FLOAT"}}}, {"name": "StatefulPartitionedCall/Generator/FlatConv/sequential/re_lu/Relu", "op": "Relu", "input": ["StatefulPartitionedCall/Generator/FlatConv/sequential/instance_normalization/add_1"], "attr": {"T": {"type": "DT_FLOAT"}}}, {"name": "StatefulPartitionedCall/Generator/ConvBlock/sequential_1/zero_padding2d_1/Pad", "op": "Pad", "input": ["StatefulPartitionedCall/Generator/FlatConv/sequential/re_lu/Relu", "StatefulPartitionedCall/Generator/ConvBlock/sequential_1/zero_padding2d_1/Pad/paddings"], "attr": {"T": {"type": "DT_FLOAT"}, "Tpaddings": {"type": "DT_INT32"}}}, {"name": "StatefulPartitionedCall/Generator/ConvBlock/sequential_1/conv2d_1/BiasAdd", "op": "_FusedConv2D", "input": ["StatefulPartitionedCall/Generator/ConvBlock/sequential_1/zero_padding2d_1/Pad", "StatefulPartitionedCall/Generator/ConvBlock/sequential_1/conv2d_1/Conv2D/ReadVariableOp", "StatefulPartitionedCall/Generator/ConvBlock/sequential_1/conv2d_1/BiasAdd/ReadVariableOp"], "device": "/device:CPU:0", "attr": {"dilations": {"list": {"i": ["1", "1", "1", "1"]}}, "T": {"type": "DT_FLOAT"}, "data_format": {"s": "TkhXQw=="}, "strides": {"list": {"i": ["1", "2", "2", "1"]}}, "explicit_paddings": {"list": {}}, "use_cudnn_on_gpu": {"b": true}, "num_args": {"i": "1"}, "epsilon": {"f": 0.0}, "padding": {"s": "VkFMSUQ="}, "fused_ops": {"list": {"s": ["Qmlhc0FkZA=="]}}}}, {"name": "StatefulPartitionedCall/Generator/ConvBlock/sequential_1/zero_padding2d_2/Pad", "op": "Pad", "input": ["StatefulPartitionedCall/Generator/ConvBlock/sequential_1/conv2d_1/BiasAdd", "StatefulPartitionedCall/Generator/ConvBlock/sequential_1/zero_padding2d_2/Pad/paddings"], "attr": {"T": {"type": "DT_FLOAT"}, "Tpaddings": {"type": "DT_INT32"}}}, {"name": "StatefulPartitionedCall/Generator/ConvBlock/sequential_1/conv2d_2/BiasAdd", "op": "_FusedConv2D", "input": ["StatefulPartitionedCall/Generator/ConvBlock/sequential_1/zero_padding2d_2/Pad", "StatefulPartitionedCall/Generator/ConvBlock/sequential_1/conv2d_2/Conv2D/ReadVariableOp", "StatefulPartitionedCall/Generator/ConvBlock/sequential_1/conv2d_2/BiasAdd/ReadVariableOp"], "device": "/device:CPU:0", "attr": {"dilations": {"list": {"i": ["1", "1", "1", "1"]}}, "T": {"type": "DT_FLOAT"}, "data_format": {"s": "TkhXQw=="}, "strides": {"list": {"i": ["1", "1", "1", "1"]}}, "explicit_paddings": {"list": {}}, "use_cudnn_on_gpu": {"b": true}, "num_args": {"i": "1"}, "epsilon": {"f": 0.0}, "padding": {"s": "VkFMSUQ="}, "fused_ops": {"list": {"s": ["Qmlhc0FkZA=="]}}}}, {"name": "StatefulPartitionedCall/Generator/ConvBlock/sequential_1/instance_normalization_1/Mean", "op": "Mean", "input": ["StatefulPartitionedCall/Generator/ConvBlock/sequential_1/conv2d_2/BiasAdd", "StatefulPartitionedCall/Generator/ConvBlock/sequential_1/instance_normalization_1/Mean/reduction_indices"], "attr": {"keep_dims": {"b": true}, "Tidx": {"type": "DT_INT32"}, "T": {"type": "DT_FLOAT"}}}, {"name": "StatefulPartitionedCall/Generator/ConvBlock/sequential_1/instance_normalization_1/reduce_std/reduce_variance/Mean", "op": "Mean", "input": ["StatefulPartitionedCall/Generator/ConvBlock/sequential_1/conv2d_2/BiasAdd", "StatefulPartitionedCall/Generator/ConvBlock/sequential_1/instance_normalization_1/reduce_std/reduce_variance/Mean/reduction_indices"], "attr": {"keep_dims": {"b": true}, "Tidx": {"type": "DT_INT32"}, "T": {"type": "DT_FLOAT"}}}, {"name": "StatefulPartitionedCall/Generator/ConvBlock/sequential_1/instance_normalization_1/sub", "op": "Sub", "input": ["StatefulPartitionedCall/Generator/ConvBlock/sequential_1/conv2d_2/BiasAdd", "StatefulPartitionedCall/Generator/ConvBlock/sequential_1/instance_normalization_1/Mean"], "attr": {"T": {"type": "DT_FLOAT"}}}, {"name": "StatefulPartitionedCall/Generator/ConvBlock/sequential_1/instance_normalization_1/reduce_std/reduce_variance/sub", "op": "SquaredDifference", "input": ["StatefulPartitionedCall/Generator/ConvBlock/sequential_1/conv2d_2/BiasAdd", "StatefulPartitionedCall/Generator/ConvBlock/sequential_1/instance_normalization_1/reduce_std/reduce_variance/Mean"], "attr": {"T": {"type": "DT_FLOAT"}}}, {"name": "StatefulPartitionedCall/Generator/ConvBlock/sequential_1/instance_normalization_1/reduce_std/reduce_variance/Mean_1", "op": "Mean", "input": ["StatefulPartitionedCall/Generator/ConvBlock/sequential_1/instance_normalization_1/reduce_std/reduce_variance/sub", "StatefulPartitionedCall/Generator/ConvBlock/sequential_1/instance_normalization_1/reduce_std/reduce_variance/Mean_1/reduction_indices"], "attr": {"keep_dims": {"b": true}, "Tidx": {"type": "DT_INT32"}, "T": {"type": "DT_FLOAT"}}}, {"name": "StatefulPartitionedCall/Generator/ConvBlock/sequential_1/instance_normalization_1/reduce_std/Sqrt", "op": "Sqrt", "input": ["StatefulPartitionedCall/Generator/ConvBlock/sequential_1/instance_normalization_1/reduce_std/reduce_variance/Mean_1"], "attr": {"T": {"type": "DT_FLOAT"}}}, {"name": "StatefulPartitionedCall/Generator/ConvBlock/sequential_1/instance_normalization_1/add", "op": "AddV2", "input": ["StatefulPartitionedCall/Generator/ConvBlock/sequential_1/instance_normalization_1/reduce_std/Sqrt", "StatefulPartitionedCall/Generator/ConvBlock/sequential_1/instance_normalization_1/add/y"], "attr": {"T": {"type": "DT_FLOAT"}}}, {"name": "StatefulPartitionedCall/Generator/ConvBlock/sequential_1/instance_normalization_1/truediv", "op": "RealDiv", "input": ["StatefulPartitionedCall/Generator/ConvBlock/sequential_1/instance_normalization_1/sub", "StatefulPartitionedCall/Generator/ConvBlock/sequential_1/instance_normalization_1/add"], "attr": {"T": {"type": "DT_FLOAT"}}}, {"name": "StatefulPartitionedCall/Generator/ConvBlock/sequential_1/instance_normalization_1/mul", "op": "Mul", "input": ["StatefulPartitionedCall/Generator/ConvBlock/sequential_1/instance_normalization_1/truediv", "StatefulPartitionedCall/Generator/ConvBlock/sequential_1/instance_normalization_1/Reshape"], "attr": {"T": {"type": "DT_FLOAT"}}}, {"name": "StatefulPartitionedCall/Generator/ConvBlock/sequential_1/instance_normalization_1/add_1", "op": "AddV2", "input": ["StatefulPartitionedCall/Generator/ConvBlock/sequential_1/instance_normalization_1/mul", "StatefulPartitionedCall/Generator/ConvBlock/sequential_1/instance_normalization_1/Reshape_1"], "attr": {"T": {"type": "DT_FLOAT"}}}, {"name": "StatefulPartitionedCall/Generator/ConvBlock/sequential_1/re_lu_1/Relu", "op": "Relu", "input": ["StatefulPartitionedCall/Generator/ConvBlock/sequential_1/instance_normalization_1/add_1"], "attr": {"T": {"type": "DT_FLOAT"}}}, {"name": "StatefulPartitionedCall/Generator/ConvBlock/sequential_2/zero_padding2d_3/Pad", "op": "Pad", "input": ["StatefulPartitionedCall/Generator/ConvBlock/sequential_1/re_lu_1/Relu", "StatefulPartitionedCall/Generator/ConvBlock/sequential_2/zero_padding2d_3/Pad/paddings"], "attr": {"T": {"type": "DT_FLOAT"}, "Tpaddings": {"type": "DT_INT32"}}}, {"name": "StatefulPartitionedCall/Generator/ConvBlock/sequential_2/conv2d_3/BiasAdd", "op": "_FusedConv2D", "input": ["StatefulPartitionedCall/Generator/ConvBlock/sequential_2/zero_padding2d_3/Pad", "StatefulPartitionedCall/Generator/ConvBlock/sequential_2/conv2d_3/Conv2D/ReadVariableOp", "StatefulPartitionedCall/Generator/ConvBlock/sequential_2/conv2d_3/BiasAdd/ReadVariableOp"], "device": "/device:CPU:0", "attr": {"dilations": {"list": {"i": ["1", "1", "1", "1"]}}, "T": {"type": "DT_FLOAT"}, "data_format": {"s": "TkhXQw=="}, "strides": {"list": {"i": ["1", "2", "2", "1"]}}, "explicit_paddings": {"list": {}}, "use_cudnn_on_gpu": {"b": true}, "num_args": {"i": "1"}, "epsilon": {"f": 0.0}, "padding": {"s": "VkFMSUQ="}, "fused_ops": {"list": {"s": ["Qmlhc0FkZA=="]}}}}, {"name": "StatefulPartitionedCall/Generator/ConvBlock/sequential_2/zero_padding2d_4/Pad", "op": "Pad", "input": ["StatefulPartitionedCall/Generator/ConvBlock/sequential_2/conv2d_3/BiasAdd", "StatefulPartitionedCall/Generator/ConvBlock/sequential_2/zero_padding2d_4/Pad/paddings"], "attr": {"T": {"type": "DT_FLOAT"}, "Tpaddings": {"type": "DT_INT32"}}}, {"name": "StatefulPartitionedCall/Generator/ConvBlock/sequential_2/conv2d_4/BiasAdd", "op": "_FusedConv2D", "input": ["StatefulPartitionedCall/Generator/ConvBlock/sequential_2/zero_padding2d_4/Pad", "StatefulPartitionedCall/Generator/ConvBlock/sequential_2/conv2d_4/Conv2D/ReadVariableOp", "StatefulPartitionedCall/Generator/ConvBlock/sequential_2/conv2d_4/BiasAdd/ReadVariableOp"], "device": "/device:CPU:0", "attr": {"dilations": {"list": {"i": ["1", "1", "1", "1"]}}, "T": {"type": "DT_FLOAT"}, "data_format": {"s": "TkhXQw=="}, "strides": {"list": {"i": ["1", "1", "1", "1"]}}, "explicit_paddings": {"list": {}}, "use_cudnn_on_gpu": {"b": true}, "num_args": {"i": "1"}, "epsilon": {"f": 0.0}, "padding": {"s": "VkFMSUQ="}, "fused_ops": {"list": {"s": ["Qmlhc0FkZA=="]}}}}, {"name": "StatefulPartitionedCall/Generator/ConvBlock/sequential_2/instance_normalization_2/Mean", "op": "Mean", "input": ["StatefulPartitionedCall/Generator/ConvBlock/sequential_2/conv2d_4/BiasAdd", "StatefulPartitionedCall/Generator/ConvBlock/sequential_2/instance_normalization_2/Mean/reduction_indices"], "attr": {"keep_dims": {"b": true}, "Tidx": {"type": "DT_INT32"}, "T": {"type": "DT_FLOAT"}}}, {"name": "StatefulPartitionedCall/Generator/ConvBlock/sequential_2/instance_normalization_2/reduce_std/reduce_variance/Mean", "op": "Mean", "input": ["StatefulPartitionedCall/Generator/ConvBlock/sequential_2/conv2d_4/BiasAdd", "StatefulPartitionedCall/Generator/ConvBlock/sequential_2/instance_normalization_2/reduce_std/reduce_variance/Mean/reduction_indices"], "attr": {"keep_dims": {"b": true}, "Tidx": {"type": "DT_INT32"}, "T": {"type": "DT_FLOAT"}}}, {"name": "StatefulPartitionedCall/Generator/ConvBlock/sequential_2/instance_normalization_2/sub", "op": "Sub", "input": ["StatefulPartitionedCall/Generator/ConvBlock/sequential_2/conv2d_4/BiasAdd", "StatefulPartitionedCall/Generator/ConvBlock/sequential_2/instance_normalization_2/Mean"], "attr": {"T": {"type": "DT_FLOAT"}}}, {"name": "StatefulPartitionedCall/Generator/ConvBlock/sequential_2/instance_normalization_2/reduce_std/reduce_variance/sub", "op": "SquaredDifference", "input": ["StatefulPartitionedCall/Generator/ConvBlock/sequential_2/conv2d_4/BiasAdd", "StatefulPartitionedCall/Generator/ConvBlock/sequential_2/instance_normalization_2/reduce_std/reduce_variance/Mean"], "attr": {"T": {"type": "DT_FLOAT"}}}, {"name": "StatefulPartitionedCall/Generator/ConvBlock/sequential_2/instance_normalization_2/reduce_std/reduce_variance/Mean_1", "op": "Mean", "input": ["StatefulPartitionedCall/Generator/ConvBlock/sequential_2/instance_normalization_2/reduce_std/reduce_variance/sub", "StatefulPartitionedCall/Generator/ConvBlock/sequential_2/instance_normalization_2/reduce_std/reduce_variance/Mean_1/reduction_indices"], "attr": {"keep_dims": {"b": true}, "Tidx": {"type": "DT_INT32"}, "T": {"type": "DT_FLOAT"}}}, {"name": "StatefulPartitionedCall/Generator/ConvBlock/sequential_2/instance_normalization_2/reduce_std/Sqrt", "op": "Sqrt", "input": ["StatefulPartitionedCall/Generator/ConvBlock/sequential_2/instance_normalization_2/reduce_std/reduce_variance/Mean_1"], "attr": {"T": {"type": "DT_FLOAT"}}}, {"name": "StatefulPartitionedCall/Generator/ConvBlock/sequential_2/instance_normalization_2/add", "op": "AddV2", "input": ["StatefulPartitionedCall/Generator/ConvBlock/sequential_2/instance_normalization_2/reduce_std/Sqrt", "StatefulPartitionedCall/Generator/ConvBlock/sequential_2/instance_normalization_2/add/y"], "attr": {"T": {"type": "DT_FLOAT"}}}, {"name": "StatefulPartitionedCall/Generator/ConvBlock/sequential_2/instance_normalization_2/truediv", "op": "RealDiv", "input": ["StatefulPartitionedCall/Generator/ConvBlock/sequential_2/instance_normalization_2/sub", "StatefulPartitionedCall/Generator/ConvBlock/sequential_2/instance_normalization_2/add"], "attr": {"T": {"type": "DT_FLOAT"}}}, {"name": "StatefulPartitionedCall/Generator/ConvBlock/sequential_2/instance_normalization_2/mul", "op": "Mul", "input": ["StatefulPartitionedCall/Generator/ConvBlock/sequential_2/instance_normalization_2/truediv", "StatefulPartitionedCall/Generator/ConvBlock/sequential_2/instance_normalization_2/Reshape"], "attr": {"T": {"type": "DT_FLOAT"}}}, {"name": "StatefulPartitionedCall/Generator/ConvBlock/sequential_2/instance_normalization_2/add_1", "op": "AddV2", "input": ["StatefulPartitionedCall/Generator/ConvBlock/sequential_2/instance_normalization_2/mul", "StatefulPartitionedCall/Generator/ConvBlock/sequential_2/instance_normalization_2/Reshape_1"], "attr": {"T": {"type": "DT_FLOAT"}}}, {"name": "StatefulPartitionedCall/Generator/ConvBlock/sequential_2/re_lu_2/Relu", "op": "Relu", "input": ["StatefulPartitionedCall/Generator/ConvBlock/sequential_2/instance_normalization_2/add_1"], "attr": {"T": {"type": "DT_FLOAT"}}}, {"name": "StatefulPartitionedCall/Generator/sequential_11/ResBlock_0/sequential_3/zero_padding2d_5/Pad", "op": "Pad", "input": ["StatefulPartitionedCall/Generator/ConvBlock/sequential_2/re_lu_2/Relu", "StatefulPartitionedCall/Generator/sequential_11/ResBlock_0/sequential_3/zero_padding2d_5/Pad/paddings"], "attr": {"T": {"type": "DT_FLOAT"}, "Tpaddings": {"type": "DT_INT32"}}}, {"name": "StatefulPartitionedCall/Generator/sequential_11/ResBlock_0/sequential_3/conv2d_5/BiasAdd", "op": "_FusedConv2D", "input": ["StatefulPartitionedCall/Generator/sequential_11/ResBlock_0/sequential_3/zero_padding2d_5/Pad", "StatefulPartitionedCall/Generator/sequential_11/ResBlock_0/sequential_3/conv2d_5/Conv2D/ReadVariableOp", "StatefulPartitionedCall/Generator/sequential_11/ResBlock_0/sequential_3/conv2d_5/BiasAdd/ReadVariableOp"], "device": "/device:CPU:0", "attr": {"dilations": {"list": {"i": ["1", "1", "1", "1"]}}, "T": {"type": "DT_FLOAT"}, "data_format": {"s": "TkhXQw=="}, "strides": {"list": {"i": ["1", "1", "1", "1"]}}, "explicit_paddings": {"list": {}}, "use_cudnn_on_gpu": {"b": true}, "num_args": {"i": "1"}, "epsilon": {"f": 0.0}, "padding": {"s": "VkFMSUQ="}, "fused_ops": {"list": {"s": ["Qmlhc0FkZA=="]}}}}, {"name": "StatefulPartitionedCall/Generator/sequential_11/ResBlock_0/sequential_3/instance_normalization_3/Mean", "op": "Mean", "input": ["StatefulPartitionedCall/Generator/sequential_11/ResBlock_0/sequential_3/conv2d_5/BiasAdd", "StatefulPartitionedCall/Generator/sequential_11/ResBlock_0/sequential_3/instance_normalization_3/Mean/reduction_indices"], "attr": {"keep_dims": {"b": true}, "Tidx": {"type": "DT_INT32"}, "T": {"type": "DT_FLOAT"}}}, {"name": "StatefulPartitionedCall/Generator/sequential_11/ResBlock_0/sequential_3/instance_normalization_3/reduce_std/reduce_variance/Mean", "op": "Mean", "input": ["StatefulPartitionedCall/Generator/sequential_11/ResBlock_0/sequential_3/conv2d_5/BiasAdd", "StatefulPartitionedCall/Generator/sequential_11/ResBlock_0/sequential_3/instance_normalization_3/reduce_std/reduce_variance/Mean/reduction_indices"], "attr": {"keep_dims": {"b": true}, "Tidx": {"type": "DT_INT32"}, "T": {"type": "DT_FLOAT"}}}, {"name": "StatefulPartitionedCall/Generator/sequential_11/ResBlock_0/sequential_3/instance_normalization_3/sub", "op": "Sub", "input": ["StatefulPartitionedCall/Generator/sequential_11/ResBlock_0/sequential_3/conv2d_5/BiasAdd", "StatefulPartitionedCall/Generator/sequential_11/ResBlock_0/sequential_3/instance_normalization_3/Mean"], "attr": {"T": {"type": "DT_FLOAT"}}}, {"name": "StatefulPartitionedCall/Generator/sequential_11/ResBlock_0/sequential_3/instance_normalization_3/reduce_std/reduce_variance/sub", "op": "SquaredDifference", "input": ["StatefulPartitionedCall/Generator/sequential_11/ResBlock_0/sequential_3/conv2d_5/BiasAdd", "StatefulPartitionedCall/Generator/sequential_11/ResBlock_0/sequential_3/instance_normalization_3/reduce_std/reduce_variance/Mean"], "attr": {"T": {"type": "DT_FLOAT"}}}, {"name": "StatefulPartitionedCall/Generator/sequential_11/ResBlock_0/sequential_3/instance_normalization_3/reduce_std/reduce_variance/Mean_1", "op": "Mean", "input": ["StatefulPartitionedCall/Generator/sequential_11/ResBlock_0/sequential_3/instance_normalization_3/reduce_std/reduce_variance/sub", "StatefulPartitionedCall/Generator/sequential_11/ResBlock_0/sequential_3/instance_normalization_3/reduce_std/reduce_variance/Mean_1/reduction_indices"], "attr": {"keep_dims": {"b": true}, "Tidx": {"type": "DT_INT32"}, "T": {"type": "DT_FLOAT"}}}, {"name": "StatefulPartitionedCall/Generator/sequential_11/ResBlock_0/sequential_3/instance_normalization_3/reduce_std/Sqrt", "op": "Sqrt", "input": ["StatefulPartitionedCall/Generator/sequential_11/ResBlock_0/sequential_3/instance_normalization_3/reduce_std/reduce_variance/Mean_1"], "attr": {"T": {"type": "DT_FLOAT"}}}, {"name": "StatefulPartitionedCall/Generator/sequential_11/ResBlock_0/sequential_3/instance_normalization_3/add", "op": "AddV2", "input": ["StatefulPartitionedCall/Generator/sequential_11/ResBlock_0/sequential_3/instance_normalization_3/reduce_std/Sqrt", "StatefulPartitionedCall/Generator/sequential_11/ResBlock_0/sequential_3/instance_normalization_3/add/y"], "attr": {"T": {"type": "DT_FLOAT"}}}, {"name": "StatefulPartitionedCall/Generator/sequential_11/ResBlock_0/sequential_3/instance_normalization_3/truediv", "op": "RealDiv", "input": ["StatefulPartitionedCall/Generator/sequential_11/ResBlock_0/sequential_3/instance_normalization_3/sub", "StatefulPartitionedCall/Generator/sequential_11/ResBlock_0/sequential_3/instance_normalization_3/add"], "attr": {"T": {"type": "DT_FLOAT"}}}, {"name": "StatefulPartitionedCall/Generator/sequential_11/ResBlock_0/sequential_3/instance_normalization_3/mul", "op": "Mul", "input": ["StatefulPartitionedCall/Generator/sequential_11/ResBlock_0/sequential_3/instance_normalization_3/truediv", "StatefulPartitionedCall/Generator/sequential_11/ResBlock_0/sequential_3/instance_normalization_3/Reshape"], "attr": {"T": {"type": "DT_FLOAT"}}}, {"name": "StatefulPartitionedCall/Generator/sequential_11/ResBlock_0/sequential_3/instance_normalization_3/add_1", "op": "AddV2", "input": ["StatefulPartitionedCall/Generator/sequential_11/ResBlock_0/sequential_3/instance_normalization_3/mul", "StatefulPartitionedCall/Generator/sequential_11/ResBlock_0/sequential_3/instance_normalization_3/Reshape_1"], "attr": {"T": {"type": "DT_FLOAT"}}}, {"name": "StatefulPartitionedCall/Generator/sequential_11/ResBlock_0/sequential_3/re_lu_3/Relu", "op": "Relu", "input": ["StatefulPartitionedCall/Generator/sequential_11/ResBlock_0/sequential_3/instance_normalization_3/add_1"], "attr": {"T": {"type": "DT_FLOAT"}}}, {"name": "StatefulPartitionedCall/Generator/sequential_11/ResBlock_0/sequential_3/zero_padding2d_6/Pad", "op": "Pad", "input": ["StatefulPartitionedCall/Generator/sequential_11/ResBlock_0/sequential_3/re_lu_3/Relu", "StatefulPartitionedCall/Generator/sequential_11/ResBlock_0/sequential_3/zero_padding2d_6/Pad/paddings"], "attr": {"T": {"type": "DT_FLOAT"}, "Tpaddings": {"type": "DT_INT32"}}}, {"name": "StatefulPartitionedCall/Generator/sequential_11/ResBlock_0/sequential_3/conv2d_6/BiasAdd", "op": "_FusedConv2D", "input": ["StatefulPartitionedCall/Generator/sequential_11/ResBlock_0/sequential_3/zero_padding2d_6/Pad", "StatefulPartitionedCall/Generator/sequential_11/ResBlock_0/sequential_3/conv2d_6/Conv2D/ReadVariableOp", "StatefulPartitionedCall/Generator/sequential_11/ResBlock_0/sequential_3/conv2d_6/BiasAdd/ReadVariableOp"], "device": "/device:CPU:0", "attr": {"dilations": {"list": {"i": ["1", "1", "1", "1"]}}, "T": {"type": "DT_FLOAT"}, "data_format": {"s": "TkhXQw=="}, "strides": {"list": {"i": ["1", "1", "1", "1"]}}, "explicit_paddings": {"list": {}}, "use_cudnn_on_gpu": {"b": true}, "num_args": {"i": "1"}, "epsilon": {"f": 0.0}, "padding": {"s": "VkFMSUQ="}, "fused_ops": {"list": {"s": ["Qmlhc0FkZA=="]}}}}, {"name": "StatefulPartitionedCall/Generator/sequential_11/ResBlock_0/sequential_3/instance_normalization_4/Mean", "op": "Mean", "input": ["StatefulPartitionedCall/Generator/sequential_11/ResBlock_0/sequential_3/conv2d_6/BiasAdd", "StatefulPartitionedCall/Generator/sequential_11/ResBlock_0/sequential_3/instance_normalization_4/Mean/reduction_indices"], "attr": {"keep_dims": {"b": true}, "Tidx": {"type": "DT_INT32"}, "T": {"type": "DT_FLOAT"}}}, {"name": "StatefulPartitionedCall/Generator/sequential_11/ResBlock_0/sequential_3/instance_normalization_4/reduce_std/reduce_variance/Mean", "op": "Mean", "input": ["StatefulPartitionedCall/Generator/sequential_11/ResBlock_0/sequential_3/conv2d_6/BiasAdd", "StatefulPartitionedCall/Generator/sequential_11/ResBlock_0/sequential_3/instance_normalization_4/reduce_std/reduce_variance/Mean/reduction_indices"], "attr": {"keep_dims": {"b": true}, "Tidx": {"type": "DT_INT32"}, "T": {"type": "DT_FLOAT"}}}, {"name": "StatefulPartitionedCall/Generator/sequential_11/ResBlock_0/sequential_3/instance_normalization_4/sub", "op": "Sub", "input": ["StatefulPartitionedCall/Generator/sequential_11/ResBlock_0/sequential_3/conv2d_6/BiasAdd", "StatefulPartitionedCall/Generator/sequential_11/ResBlock_0/sequential_3/instance_normalization_4/Mean"], "attr": {"T": {"type": "DT_FLOAT"}}}, {"name": "StatefulPartitionedCall/Generator/sequential_11/ResBlock_0/sequential_3/instance_normalization_4/reduce_std/reduce_variance/sub", "op": "SquaredDifference", "input": ["StatefulPartitionedCall/Generator/sequential_11/ResBlock_0/sequential_3/conv2d_6/BiasAdd", "StatefulPartitionedCall/Generator/sequential_11/ResBlock_0/sequential_3/instance_normalization_4/reduce_std/reduce_variance/Mean"], "attr": {"T": {"type": "DT_FLOAT"}}}, {"name": "StatefulPartitionedCall/Generator/sequential_11/ResBlock_0/sequential_3/instance_normalization_4/reduce_std/reduce_variance/Mean_1", "op": "Mean", "input": ["StatefulPartitionedCall/Generator/sequential_11/ResBlock_0/sequential_3/instance_normalization_4/reduce_std/reduce_variance/sub", "StatefulPartitionedCall/Generator/sequential_11/ResBlock_0/sequential_3/instance_normalization_4/reduce_std/reduce_variance/Mean_1/reduction_indices"], "attr": {"keep_dims": {"b": true}, "Tidx": {"type": "DT_INT32"}, "T": {"type": "DT_FLOAT"}}}, {"name": "StatefulPartitionedCall/Generator/sequential_11/ResBlock_0/sequential_3/instance_normalization_4/reduce_std/Sqrt", "op": "Sqrt", "input": ["StatefulPartitionedCall/Generator/sequential_11/ResBlock_0/sequential_3/instance_normalization_4/reduce_std/reduce_variance/Mean_1"], "attr": {"T": {"type": "DT_FLOAT"}}}, {"name": "StatefulPartitionedCall/Generator/sequential_11/ResBlock_0/sequential_3/instance_normalization_4/add", "op": "AddV2", "input": ["StatefulPartitionedCall/Generator/sequential_11/ResBlock_0/sequential_3/instance_normalization_4/reduce_std/Sqrt", "StatefulPartitionedCall/Generator/sequential_11/ResBlock_0/sequential_3/instance_normalization_4/add/y"], "attr": {"T": {"type": "DT_FLOAT"}}}, {"name": "StatefulPartitionedCall/Generator/sequential_11/ResBlock_0/sequential_3/instance_normalization_4/truediv", "op": "RealDiv", "input": ["StatefulPartitionedCall/Generator/sequential_11/ResBlock_0/sequential_3/instance_normalization_4/sub", "StatefulPartitionedCall/Generator/sequential_11/ResBlock_0/sequential_3/instance_normalization_4/add"], "attr": {"T": {"type": "DT_FLOAT"}}}, {"name": "StatefulPartitionedCall/Generator/sequential_11/ResBlock_0/sequential_3/instance_normalization_4/mul", "op": "Mul", "input": ["StatefulPartitionedCall/Generator/sequential_11/ResBlock_0/sequential_3/instance_normalization_4/truediv", "StatefulPartitionedCall/Generator/sequential_11/ResBlock_0/sequential_3/instance_normalization_4/Reshape"], "attr": {"T": {"type": "DT_FLOAT"}}}, {"name": "StatefulPartitionedCall/Generator/sequential_11/ResBlock_0/sequential_3/instance_normalization_4/add_1", "op": "AddV2", "input": ["StatefulPartitionedCall/Generator/sequential_11/ResBlock_0/sequential_3/instance_normalization_4/mul", "StatefulPartitionedCall/Generator/sequential_11/ResBlock_0/sequential_3/instance_normalization_4/Reshape_1"], "attr": {"T": {"type": "DT_FLOAT"}}}, {"name": "StatefulPartitionedCall/Generator/sequential_11/ResBlock_0/add/add", "op": "AddV2", "input": ["StatefulPartitionedCall/Generator/sequential_11/ResBlock_0/sequential_3/instance_normalization_4/add_1", "StatefulPartitionedCall/Generator/ConvBlock/sequential_2/re_lu_2/Relu"], "attr": {"T": {"type": "DT_FLOAT"}}}, {"name": "StatefulPartitionedCall/Generator/sequential_11/ResBlock_1/sequential_4/zero_padding2d_7/Pad", "op": "Pad", "input": ["StatefulPartitionedCall/Generator/sequential_11/ResBlock_0/add/add", "StatefulPartitionedCall/Generator/sequential_11/ResBlock_1/sequential_4/zero_padding2d_7/Pad/paddings"], "attr": {"T": {"type": "DT_FLOAT"}, "Tpaddings": {"type": "DT_INT32"}}}, {"name": "StatefulPartitionedCall/Generator/sequential_11/ResBlock_1/sequential_4/conv2d_7/BiasAdd", "op": "_FusedConv2D", "input": ["StatefulPartitionedCall/Generator/sequential_11/ResBlock_1/sequential_4/zero_padding2d_7/Pad", "StatefulPartitionedCall/Generator/sequential_11/ResBlock_1/sequential_4/conv2d_7/Conv2D/ReadVariableOp", "StatefulPartitionedCall/Generator/sequential_11/ResBlock_1/sequential_4/conv2d_7/BiasAdd/ReadVariableOp"], "device": "/device:CPU:0", "attr": {"dilations": {"list": {"i": ["1", "1", "1", "1"]}}, "T": {"type": "DT_FLOAT"}, "data_format": {"s": "TkhXQw=="}, "strides": {"list": {"i": ["1", "1", "1", "1"]}}, "explicit_paddings": {"list": {}}, "use_cudnn_on_gpu": {"b": true}, "num_args": {"i": "1"}, "epsilon": {"f": 0.0}, "padding": {"s": "VkFMSUQ="}, "fused_ops": {"list": {"s": ["Qmlhc0FkZA=="]}}}}, {"name": "StatefulPartitionedCall/Generator/sequential_11/ResBlock_1/sequential_4/instance_normalization_5/Mean", "op": "Mean", "input": ["StatefulPartitionedCall/Generator/sequential_11/ResBlock_1/sequential_4/conv2d_7/BiasAdd", "StatefulPartitionedCall/Generator/sequential_11/ResBlock_1/sequential_4/instance_normalization_5/Mean/reduction_indices"], "attr": {"keep_dims": {"b": true}, "Tidx": {"type": "DT_INT32"}, "T": {"type": "DT_FLOAT"}}}, {"name": "StatefulPartitionedCall/Generator/sequential_11/ResBlock_1/sequential_4/instance_normalization_5/reduce_std/reduce_variance/Mean", "op": "Mean", "input": ["StatefulPartitionedCall/Generator/sequential_11/ResBlock_1/sequential_4/conv2d_7/BiasAdd", "StatefulPartitionedCall/Generator/sequential_11/ResBlock_1/sequential_4/instance_normalization_5/reduce_std/reduce_variance/Mean/reduction_indices"], "attr": {"keep_dims": {"b": true}, "Tidx": {"type": "DT_INT32"}, "T": {"type": "DT_FLOAT"}}}, {"name": "StatefulPartitionedCall/Generator/sequential_11/ResBlock_1/sequential_4/instance_normalization_5/sub", "op": "Sub", "input": ["StatefulPartitionedCall/Generator/sequential_11/ResBlock_1/sequential_4/conv2d_7/BiasAdd", "StatefulPartitionedCall/Generator/sequential_11/ResBlock_1/sequential_4/instance_normalization_5/Mean"], "attr": {"T": {"type": "DT_FLOAT"}}}, {"name": "StatefulPartitionedCall/Generator/sequential_11/ResBlock_1/sequential_4/instance_normalization_5/reduce_std/reduce_variance/sub", "op": "SquaredDifference", "input": ["StatefulPartitionedCall/Generator/sequential_11/ResBlock_1/sequential_4/conv2d_7/BiasAdd", "StatefulPartitionedCall/Generator/sequential_11/ResBlock_1/sequential_4/instance_normalization_5/reduce_std/reduce_variance/Mean"], "attr": {"T": {"type": "DT_FLOAT"}}}, {"name": "StatefulPartitionedCall/Generator/sequential_11/ResBlock_1/sequential_4/instance_normalization_5/reduce_std/reduce_variance/Mean_1", "op": "Mean", "input": ["StatefulPartitionedCall/Generator/sequential_11/ResBlock_1/sequential_4/instance_normalization_5/reduce_std/reduce_variance/sub", "StatefulPartitionedCall/Generator/sequential_11/ResBlock_1/sequential_4/instance_normalization_5/reduce_std/reduce_variance/Mean_1/reduction_indices"], "attr": {"keep_dims": {"b": true}, "Tidx": {"type": "DT_INT32"}, "T": {"type": "DT_FLOAT"}}}, {"name": "StatefulPartitionedCall/Generator/sequential_11/ResBlock_1/sequential_4/instance_normalization_5/reduce_std/Sqrt", "op": "Sqrt", "input": ["StatefulPartitionedCall/Generator/sequential_11/ResBlock_1/sequential_4/instance_normalization_5/reduce_std/reduce_variance/Mean_1"], "attr": {"T": {"type": "DT_FLOAT"}}}, {"name": "StatefulPartitionedCall/Generator/sequential_11/ResBlock_1/sequential_4/instance_normalization_5/add", "op": "AddV2", "input": ["StatefulPartitionedCall/Generator/sequential_11/ResBlock_1/sequential_4/instance_normalization_5/reduce_std/Sqrt", "StatefulPartitionedCall/Generator/sequential_11/ResBlock_1/sequential_4/instance_normalization_5/add/y"], "attr": {"T": {"type": "DT_FLOAT"}}}, {"name": "StatefulPartitionedCall/Generator/sequential_11/ResBlock_1/sequential_4/instance_normalization_5/truediv", "op": "RealDiv", "input": ["StatefulPartitionedCall/Generator/sequential_11/ResBlock_1/sequential_4/instance_normalization_5/sub", "StatefulPartitionedCall/Generator/sequential_11/ResBlock_1/sequential_4/instance_normalization_5/add"], "attr": {"T": {"type": "DT_FLOAT"}}}, {"name": "StatefulPartitionedCall/Generator/sequential_11/ResBlock_1/sequential_4/instance_normalization_5/mul", "op": "Mul", "input": ["StatefulPartitionedCall/Generator/sequential_11/ResBlock_1/sequential_4/instance_normalization_5/truediv", "StatefulPartitionedCall/Generator/sequential_11/ResBlock_1/sequential_4/instance_normalization_5/Reshape"], "attr": {"T": {"type": "DT_FLOAT"}}}, {"name": "StatefulPartitionedCall/Generator/sequential_11/ResBlock_1/sequential_4/instance_normalization_5/add_1", "op": "AddV2", "input": ["StatefulPartitionedCall/Generator/sequential_11/ResBlock_1/sequential_4/instance_normalization_5/mul", "StatefulPartitionedCall/Generator/sequential_11/ResBlock_1/sequential_4/instance_normalization_5/Reshape_1"], "attr": {"T": {"type": "DT_FLOAT"}}}, {"name": "StatefulPartitionedCall/Generator/sequential_11/ResBlock_1/sequential_4/re_lu_4/Relu", "op": "Relu", "input": ["StatefulPartitionedCall/Generator/sequential_11/ResBlock_1/sequential_4/instance_normalization_5/add_1"], "attr": {"T": {"type": "DT_FLOAT"}}}, {"name": "StatefulPartitionedCall/Generator/sequential_11/ResBlock_1/sequential_4/zero_padding2d_8/Pad", "op": "Pad", "input": ["StatefulPartitionedCall/Generator/sequential_11/ResBlock_1/sequential_4/re_lu_4/Relu", "StatefulPartitionedCall/Generator/sequential_11/ResBlock_1/sequential_4/zero_padding2d_8/Pad/paddings"], "attr": {"T": {"type": "DT_FLOAT"}, "Tpaddings": {"type": "DT_INT32"}}}, {"name": "StatefulPartitionedCall/Generator/sequential_11/ResBlock_1/sequential_4/conv2d_8/BiasAdd", "op": "_FusedConv2D", "input": ["StatefulPartitionedCall/Generator/sequential_11/ResBlock_1/sequential_4/zero_padding2d_8/Pad", "StatefulPartitionedCall/Generator/sequential_11/ResBlock_1/sequential_4/conv2d_8/Conv2D/ReadVariableOp", "StatefulPartitionedCall/Generator/sequential_11/ResBlock_1/sequential_4/conv2d_8/BiasAdd/ReadVariableOp"], "device": "/device:CPU:0", "attr": {"dilations": {"list": {"i": ["1", "1", "1", "1"]}}, "T": {"type": "DT_FLOAT"}, "data_format": {"s": "TkhXQw=="}, "strides": {"list": {"i": ["1", "1", "1", "1"]}}, "explicit_paddings": {"list": {}}, "use_cudnn_on_gpu": {"b": true}, "num_args": {"i": "1"}, "epsilon": {"f": 0.0}, "padding": {"s": "VkFMSUQ="}, "fused_ops": {"list": {"s": ["Qmlhc0FkZA=="]}}}}, {"name": "StatefulPartitionedCall/Generator/sequential_11/ResBlock_1/sequential_4/instance_normalization_6/Mean", "op": "Mean", "input": ["StatefulPartitionedCall/Generator/sequential_11/ResBlock_1/sequential_4/conv2d_8/BiasAdd", "StatefulPartitionedCall/Generator/sequential_11/ResBlock_1/sequential_4/instance_normalization_6/Mean/reduction_indices"], "attr": {"keep_dims": {"b": true}, "Tidx": {"type": "DT_INT32"}, "T": {"type": "DT_FLOAT"}}}, {"name": "StatefulPartitionedCall/Generator/sequential_11/ResBlock_1/sequential_4/instance_normalization_6/reduce_std/reduce_variance/Mean", "op": "Mean", "input": ["StatefulPartitionedCall/Generator/sequential_11/ResBlock_1/sequential_4/conv2d_8/BiasAdd", "StatefulPartitionedCall/Generator/sequential_11/ResBlock_1/sequential_4/instance_normalization_6/reduce_std/reduce_variance/Mean/reduction_indices"], "attr": {"keep_dims": {"b": true}, "Tidx": {"type": "DT_INT32"}, "T": {"type": "DT_FLOAT"}}}, {"name": "StatefulPartitionedCall/Generator/sequential_11/ResBlock_1/sequential_4/instance_normalization_6/sub", "op": "Sub", "input": ["StatefulPartitionedCall/Generator/sequential_11/ResBlock_1/sequential_4/conv2d_8/BiasAdd", "StatefulPartitionedCall/Generator/sequential_11/ResBlock_1/sequential_4/instance_normalization_6/Mean"], "attr": {"T": {"type": "DT_FLOAT"}}}, {"name": "StatefulPartitionedCall/Generator/sequential_11/ResBlock_1/sequential_4/instance_normalization_6/reduce_std/reduce_variance/sub", "op": "SquaredDifference", "input": ["StatefulPartitionedCall/Generator/sequential_11/ResBlock_1/sequential_4/conv2d_8/BiasAdd", "StatefulPartitionedCall/Generator/sequential_11/ResBlock_1/sequential_4/instance_normalization_6/reduce_std/reduce_variance/Mean"], "attr": {"T": {"type": "DT_FLOAT"}}}, {"name": "StatefulPartitionedCall/Generator/sequential_11/ResBlock_1/sequential_4/instance_normalization_6/reduce_std/reduce_variance/Mean_1", "op": "Mean", "input": ["StatefulPartitionedCall/Generator/sequential_11/ResBlock_1/sequential_4/instance_normalization_6/reduce_std/reduce_variance/sub", "StatefulPartitionedCall/Generator/sequential_11/ResBlock_1/sequential_4/instance_normalization_6/reduce_std/reduce_variance/Mean_1/reduction_indices"], "attr": {"keep_dims": {"b": true}, "Tidx": {"type": "DT_INT32"}, "T": {"type": "DT_FLOAT"}}}, {"name": "StatefulPartitionedCall/Generator/sequential_11/ResBlock_1/sequential_4/instance_normalization_6/reduce_std/Sqrt", "op": "Sqrt", "input": ["StatefulPartitionedCall/Generator/sequential_11/ResBlock_1/sequential_4/instance_normalization_6/reduce_std/reduce_variance/Mean_1"], "attr": {"T": {"type": "DT_FLOAT"}}}, {"name": "StatefulPartitionedCall/Generator/sequential_11/ResBlock_1/sequential_4/instance_normalization_6/add", "op": "AddV2", "input": ["StatefulPartitionedCall/Generator/sequential_11/ResBlock_1/sequential_4/instance_normalization_6/reduce_std/Sqrt", "StatefulPartitionedCall/Generator/sequential_11/ResBlock_1/sequential_4/instance_normalization_6/add/y"], "attr": {"T": {"type": "DT_FLOAT"}}}, {"name": "StatefulPartitionedCall/Generator/sequential_11/ResBlock_1/sequential_4/instance_normalization_6/truediv", "op": "RealDiv", "input": ["StatefulPartitionedCall/Generator/sequential_11/ResBlock_1/sequential_4/instance_normalization_6/sub", "StatefulPartitionedCall/Generator/sequential_11/ResBlock_1/sequential_4/instance_normalization_6/add"], "attr": {"T": {"type": "DT_FLOAT"}}}, {"name": "StatefulPartitionedCall/Generator/sequential_11/ResBlock_1/sequential_4/instance_normalization_6/mul", "op": "Mul", "input": ["StatefulPartitionedCall/Generator/sequential_11/ResBlock_1/sequential_4/instance_normalization_6/truediv", "StatefulPartitionedCall/Generator/sequential_11/ResBlock_1/sequential_4/instance_normalization_6/Reshape"], "attr": {"T": {"type": "DT_FLOAT"}}}, {"name": "StatefulPartitionedCall/Generator/sequential_11/ResBlock_1/sequential_4/instance_normalization_6/add_1", "op": "AddV2", "input": ["StatefulPartitionedCall/Generator/sequential_11/ResBlock_1/sequential_4/instance_normalization_6/mul", "StatefulPartitionedCall/Generator/sequential_11/ResBlock_1/sequential_4/instance_normalization_6/Reshape_1"], "attr": {"T": {"type": "DT_FLOAT"}}}, {"name": "StatefulPartitionedCall/Generator/sequential_11/ResBlock_1/add_1/add", "op": "AddV2", "input": ["StatefulPartitionedCall/Generator/sequential_11/ResBlock_1/sequential_4/instance_normalization_6/add_1", "StatefulPartitionedCall/Generator/sequential_11/ResBlock_0/add/add"], "attr": {"T": {"type": "DT_FLOAT"}}}, {"name": "StatefulPartitionedCall/Generator/sequential_11/ResBlock_2/sequential_5/zero_padding2d_9/Pad", "op": "Pad", "input": ["StatefulPartitionedCall/Generator/sequential_11/ResBlock_1/add_1/add", "StatefulPartitionedCall/Generator/sequential_11/ResBlock_2/sequential_5/zero_padding2d_9/Pad/paddings"], "attr": {"T": {"type": "DT_FLOAT"}, "Tpaddings": {"type": "DT_INT32"}}}, {"name": "StatefulPartitionedCall/Generator/sequential_11/ResBlock_2/sequential_5/conv2d_9/BiasAdd", "op": "_FusedConv2D", "input": ["StatefulPartitionedCall/Generator/sequential_11/ResBlock_2/sequential_5/zero_padding2d_9/Pad", "StatefulPartitionedCall/Generator/sequential_11/ResBlock_2/sequential_5/conv2d_9/Conv2D/ReadVariableOp", "StatefulPartitionedCall/Generator/sequential_11/ResBlock_2/sequential_5/conv2d_9/BiasAdd/ReadVariableOp"], "device": "/device:CPU:0", "attr": {"dilations": {"list": {"i": ["1", "1", "1", "1"]}}, "T": {"type": "DT_FLOAT"}, "data_format": {"s": "TkhXQw=="}, "strides": {"list": {"i": ["1", "1", "1", "1"]}}, "explicit_paddings": {"list": {}}, "use_cudnn_on_gpu": {"b": true}, "num_args": {"i": "1"}, "epsilon": {"f": 0.0}, "padding": {"s": "VkFMSUQ="}, "fused_ops": {"list": {"s": ["Qmlhc0FkZA=="]}}}}, {"name": "StatefulPartitionedCall/Generator/sequential_11/ResBlock_2/sequential_5/instance_normalization_7/Mean", "op": "Mean", "input": ["StatefulPartitionedCall/Generator/sequential_11/ResBlock_2/sequential_5/conv2d_9/BiasAdd", "StatefulPartitionedCall/Generator/sequential_11/ResBlock_2/sequential_5/instance_normalization_7/Mean/reduction_indices"], "attr": {"keep_dims": {"b": true}, "Tidx": {"type": "DT_INT32"}, "T": {"type": "DT_FLOAT"}}}, {"name": "StatefulPartitionedCall/Generator/sequential_11/ResBlock_2/sequential_5/instance_normalization_7/reduce_std/reduce_variance/Mean", "op": "Mean", "input": ["StatefulPartitionedCall/Generator/sequential_11/ResBlock_2/sequential_5/conv2d_9/BiasAdd", "StatefulPartitionedCall/Generator/sequential_11/ResBlock_2/sequential_5/instance_normalization_7/reduce_std/reduce_variance/Mean/reduction_indices"], "attr": {"keep_dims": {"b": true}, "Tidx": {"type": "DT_INT32"}, "T": {"type": "DT_FLOAT"}}}, {"name": "StatefulPartitionedCall/Generator/sequential_11/ResBlock_2/sequential_5/instance_normalization_7/sub", "op": "Sub", "input": ["StatefulPartitionedCall/Generator/sequential_11/ResBlock_2/sequential_5/conv2d_9/BiasAdd", "StatefulPartitionedCall/Generator/sequential_11/ResBlock_2/sequential_5/instance_normalization_7/Mean"], "attr": {"T": {"type": "DT_FLOAT"}}}, {"name": "StatefulPartitionedCall/Generator/sequential_11/ResBlock_2/sequential_5/instance_normalization_7/reduce_std/reduce_variance/sub", "op": "SquaredDifference", "input": ["StatefulPartitionedCall/Generator/sequential_11/ResBlock_2/sequential_5/conv2d_9/BiasAdd", "StatefulPartitionedCall/Generator/sequential_11/ResBlock_2/sequential_5/instance_normalization_7/reduce_std/reduce_variance/Mean"], "attr": {"T": {"type": "DT_FLOAT"}}}, {"name": "StatefulPartitionedCall/Generator/sequential_11/ResBlock_2/sequential_5/instance_normalization_7/reduce_std/reduce_variance/Mean_1", "op": "Mean", "input": ["StatefulPartitionedCall/Generator/sequential_11/ResBlock_2/sequential_5/instance_normalization_7/reduce_std/reduce_variance/sub", "StatefulPartitionedCall/Generator/sequential_11/ResBlock_2/sequential_5/instance_normalization_7/reduce_std/reduce_variance/Mean_1/reduction_indices"], "attr": {"keep_dims": {"b": true}, "Tidx": {"type": "DT_INT32"}, "T": {"type": "DT_FLOAT"}}}, {"name": "StatefulPartitionedCall/Generator/sequential_11/ResBlock_2/sequential_5/instance_normalization_7/reduce_std/Sqrt", "op": "Sqrt", "input": ["StatefulPartitionedCall/Generator/sequential_11/ResBlock_2/sequential_5/instance_normalization_7/reduce_std/reduce_variance/Mean_1"], "attr": {"T": {"type": "DT_FLOAT"}}}, {"name": "StatefulPartitionedCall/Generator/sequential_11/ResBlock_2/sequential_5/instance_normalization_7/add", "op": "AddV2", "input": ["StatefulPartitionedCall/Generator/sequential_11/ResBlock_2/sequential_5/instance_normalization_7/reduce_std/Sqrt", "StatefulPartitionedCall/Generator/sequential_11/ResBlock_2/sequential_5/instance_normalization_7/add/y"], "attr": {"T": {"type": "DT_FLOAT"}}}, {"name": "StatefulPartitionedCall/Generator/sequential_11/ResBlock_2/sequential_5/instance_normalization_7/truediv", "op": "RealDiv", "input": ["StatefulPartitionedCall/Generator/sequential_11/ResBlock_2/sequential_5/instance_normalization_7/sub", "StatefulPartitionedCall/Generator/sequential_11/ResBlock_2/sequential_5/instance_normalization_7/add"], "attr": {"T": {"type": "DT_FLOAT"}}}, {"name": "StatefulPartitionedCall/Generator/sequential_11/ResBlock_2/sequential_5/instance_normalization_7/mul", "op": "Mul", "input": ["StatefulPartitionedCall/Generator/sequential_11/ResBlock_2/sequential_5/instance_normalization_7/truediv", "StatefulPartitionedCall/Generator/sequential_11/ResBlock_2/sequential_5/instance_normalization_7/Reshape"], "attr": {"T": {"type": "DT_FLOAT"}}}, {"name": "StatefulPartitionedCall/Generator/sequential_11/ResBlock_2/sequential_5/instance_normalization_7/add_1", "op": "AddV2", "input": ["StatefulPartitionedCall/Generator/sequential_11/ResBlock_2/sequential_5/instance_normalization_7/mul", "StatefulPartitionedCall/Generator/sequential_11/ResBlock_2/sequential_5/instance_normalization_7/Reshape_1"], "attr": {"T": {"type": "DT_FLOAT"}}}, {"name": "StatefulPartitionedCall/Generator/sequential_11/ResBlock_2/sequential_5/re_lu_5/Relu", "op": "Relu", "input": ["StatefulPartitionedCall/Generator/sequential_11/ResBlock_2/sequential_5/instance_normalization_7/add_1"], "attr": {"T": {"type": "DT_FLOAT"}}}, {"name": "StatefulPartitionedCall/Generator/sequential_11/ResBlock_2/sequential_5/zero_padding2d_10/Pad", "op": "Pad", "input": ["StatefulPartitionedCall/Generator/sequential_11/ResBlock_2/sequential_5/re_lu_5/Relu", "StatefulPartitionedCall/Generator/sequential_11/ResBlock_2/sequential_5/zero_padding2d_10/Pad/paddings"], "attr": {"T": {"type": "DT_FLOAT"}, "Tpaddings": {"type": "DT_INT32"}}}, {"name": "StatefulPartitionedCall/Generator/sequential_11/ResBlock_2/sequential_5/conv2d_10/BiasAdd", "op": "_FusedConv2D", "input": ["StatefulPartitionedCall/Generator/sequential_11/ResBlock_2/sequential_5/zero_padding2d_10/Pad", "StatefulPartitionedCall/Generator/sequential_11/ResBlock_2/sequential_5/conv2d_10/Conv2D/ReadVariableOp", "StatefulPartitionedCall/Generator/sequential_11/ResBlock_2/sequential_5/conv2d_10/BiasAdd/ReadVariableOp"], "device": "/device:CPU:0", "attr": {"dilations": {"list": {"i": ["1", "1", "1", "1"]}}, "T": {"type": "DT_FLOAT"}, "data_format": {"s": "TkhXQw=="}, "strides": {"list": {"i": ["1", "1", "1", "1"]}}, "explicit_paddings": {"list": {}}, "use_cudnn_on_gpu": {"b": true}, "num_args": {"i": "1"}, "epsilon": {"f": 0.0}, "padding": {"s": "VkFMSUQ="}, "fused_ops": {"list": {"s": ["Qmlhc0FkZA=="]}}}}, {"name": "StatefulPartitionedCall/Generator/sequential_11/ResBlock_2/sequential_5/instance_normalization_8/Mean", "op": "Mean", "input": ["StatefulPartitionedCall/Generator/sequential_11/ResBlock_2/sequential_5/conv2d_10/BiasAdd", "StatefulPartitionedCall/Generator/sequential_11/ResBlock_2/sequential_5/instance_normalization_8/Mean/reduction_indices"], "attr": {"keep_dims": {"b": true}, "Tidx": {"type": "DT_INT32"}, "T": {"type": "DT_FLOAT"}}}, {"name": "StatefulPartitionedCall/Generator/sequential_11/ResBlock_2/sequential_5/instance_normalization_8/reduce_std/reduce_variance/Mean", "op": "Mean", "input": ["StatefulPartitionedCall/Generator/sequential_11/ResBlock_2/sequential_5/conv2d_10/BiasAdd", "StatefulPartitionedCall/Generator/sequential_11/ResBlock_2/sequential_5/instance_normalization_8/reduce_std/reduce_variance/Mean/reduction_indices"], "attr": {"keep_dims": {"b": true}, "Tidx": {"type": "DT_INT32"}, "T": {"type": "DT_FLOAT"}}}, {"name": "StatefulPartitionedCall/Generator/sequential_11/ResBlock_2/sequential_5/instance_normalization_8/sub", "op": "Sub", "input": ["StatefulPartitionedCall/Generator/sequential_11/ResBlock_2/sequential_5/conv2d_10/BiasAdd", "StatefulPartitionedCall/Generator/sequential_11/ResBlock_2/sequential_5/instance_normalization_8/Mean"], "attr": {"T": {"type": "DT_FLOAT"}}}, {"name": "StatefulPartitionedCall/Generator/sequential_11/ResBlock_2/sequential_5/instance_normalization_8/reduce_std/reduce_variance/sub", "op": "SquaredDifference", "input": ["StatefulPartitionedCall/Generator/sequential_11/ResBlock_2/sequential_5/conv2d_10/BiasAdd", "StatefulPartitionedCall/Generator/sequential_11/ResBlock_2/sequential_5/instance_normalization_8/reduce_std/reduce_variance/Mean"], "attr": {"T": {"type": "DT_FLOAT"}}}, {"name": "StatefulPartitionedCall/Generator/sequential_11/ResBlock_2/sequential_5/instance_normalization_8/reduce_std/reduce_variance/Mean_1", "op": "Mean", "input": ["StatefulPartitionedCall/Generator/sequential_11/ResBlock_2/sequential_5/instance_normalization_8/reduce_std/reduce_variance/sub", "StatefulPartitionedCall/Generator/sequential_11/ResBlock_2/sequential_5/instance_normalization_8/reduce_std/reduce_variance/Mean_1/reduction_indices"], "attr": {"keep_dims": {"b": true}, "Tidx": {"type": "DT_INT32"}, "T": {"type": "DT_FLOAT"}}}, {"name": "StatefulPartitionedCall/Generator/sequential_11/ResBlock_2/sequential_5/instance_normalization_8/reduce_std/Sqrt", "op": "Sqrt", "input": ["StatefulPartitionedCall/Generator/sequential_11/ResBlock_2/sequential_5/instance_normalization_8/reduce_std/reduce_variance/Mean_1"], "attr": {"T": {"type": "DT_FLOAT"}}}, {"name": "StatefulPartitionedCall/Generator/sequential_11/ResBlock_2/sequential_5/instance_normalization_8/add", "op": "AddV2", "input": ["StatefulPartitionedCall/Generator/sequential_11/ResBlock_2/sequential_5/instance_normalization_8/reduce_std/Sqrt", "StatefulPartitionedCall/Generator/sequential_11/ResBlock_2/sequential_5/instance_normalization_8/add/y"], "attr": {"T": {"type": "DT_FLOAT"}}}, {"name": "StatefulPartitionedCall/Generator/sequential_11/ResBlock_2/sequential_5/instance_normalization_8/truediv", "op": "RealDiv", "input": ["StatefulPartitionedCall/Generator/sequential_11/ResBlock_2/sequential_5/instance_normalization_8/sub", "StatefulPartitionedCall/Generator/sequential_11/ResBlock_2/sequential_5/instance_normalization_8/add"], "attr": {"T": {"type": "DT_FLOAT"}}}, {"name": "StatefulPartitionedCall/Generator/sequential_11/ResBlock_2/sequential_5/instance_normalization_8/mul", "op": "Mul", "input": ["StatefulPartitionedCall/Generator/sequential_11/ResBlock_2/sequential_5/instance_normalization_8/truediv", "StatefulPartitionedCall/Generator/sequential_11/ResBlock_2/sequential_5/instance_normalization_8/Reshape"], "attr": {"T": {"type": "DT_FLOAT"}}}, {"name": "StatefulPartitionedCall/Generator/sequential_11/ResBlock_2/sequential_5/instance_normalization_8/add_1", "op": "AddV2", "input": ["StatefulPartitionedCall/Generator/sequential_11/ResBlock_2/sequential_5/instance_normalization_8/mul", "StatefulPartitionedCall/Generator/sequential_11/ResBlock_2/sequential_5/instance_normalization_8/Reshape_1"], "attr": {"T": {"type": "DT_FLOAT"}}}, {"name": "StatefulPartitionedCall/Generator/sequential_11/ResBlock_2/add_2/add", "op": "AddV2", "input": ["StatefulPartitionedCall/Generator/sequential_11/ResBlock_2/sequential_5/instance_normalization_8/add_1", "StatefulPartitionedCall/Generator/sequential_11/ResBlock_1/add_1/add"], "attr": {"T": {"type": "DT_FLOAT"}}}, {"name": "StatefulPartitionedCall/Generator/sequential_11/ResBlock_3/sequential_6/zero_padding2d_11/Pad", "op": "Pad", "input": ["StatefulPartitionedCall/Generator/sequential_11/ResBlock_2/add_2/add", "StatefulPartitionedCall/Generator/sequential_11/ResBlock_3/sequential_6/zero_padding2d_11/Pad/paddings"], "attr": {"T": {"type": "DT_FLOAT"}, "Tpaddings": {"type": "DT_INT32"}}}, {"name": "StatefulPartitionedCall/Generator/sequential_11/ResBlock_3/sequential_6/conv2d_11/BiasAdd", "op": "_FusedConv2D", "input": ["StatefulPartitionedCall/Generator/sequential_11/ResBlock_3/sequential_6/zero_padding2d_11/Pad", "StatefulPartitionedCall/Generator/sequential_11/ResBlock_3/sequential_6/conv2d_11/Conv2D/ReadVariableOp", "StatefulPartitionedCall/Generator/sequential_11/ResBlock_3/sequential_6/conv2d_11/BiasAdd/ReadVariableOp"], "device": "/device:CPU:0", "attr": {"dilations": {"list": {"i": ["1", "1", "1", "1"]}}, "T": {"type": "DT_FLOAT"}, "data_format": {"s": "TkhXQw=="}, "strides": {"list": {"i": ["1", "1", "1", "1"]}}, "explicit_paddings": {"list": {}}, "use_cudnn_on_gpu": {"b": true}, "num_args": {"i": "1"}, "epsilon": {"f": 0.0}, "padding": {"s": "VkFMSUQ="}, "fused_ops": {"list": {"s": ["Qmlhc0FkZA=="]}}}}, {"name": "StatefulPartitionedCall/Generator/sequential_11/ResBlock_3/sequential_6/instance_normalization_9/Mean", "op": "Mean", "input": ["StatefulPartitionedCall/Generator/sequential_11/ResBlock_3/sequential_6/conv2d_11/BiasAdd", "StatefulPartitionedCall/Generator/sequential_11/ResBlock_3/sequential_6/instance_normalization_9/Mean/reduction_indices"], "attr": {"keep_dims": {"b": true}, "Tidx": {"type": "DT_INT32"}, "T": {"type": "DT_FLOAT"}}}, {"name": "StatefulPartitionedCall/Generator/sequential_11/ResBlock_3/sequential_6/instance_normalization_9/reduce_std/reduce_variance/Mean", "op": "Mean", "input": ["StatefulPartitionedCall/Generator/sequential_11/ResBlock_3/sequential_6/conv2d_11/BiasAdd", "StatefulPartitionedCall/Generator/sequential_11/ResBlock_3/sequential_6/instance_normalization_9/reduce_std/reduce_variance/Mean/reduction_indices"], "attr": {"keep_dims": {"b": true}, "Tidx": {"type": "DT_INT32"}, "T": {"type": "DT_FLOAT"}}}, {"name": "StatefulPartitionedCall/Generator/sequential_11/ResBlock_3/sequential_6/instance_normalization_9/sub", "op": "Sub", "input": ["StatefulPartitionedCall/Generator/sequential_11/ResBlock_3/sequential_6/conv2d_11/BiasAdd", "StatefulPartitionedCall/Generator/sequential_11/ResBlock_3/sequential_6/instance_normalization_9/Mean"], "attr": {"T": {"type": "DT_FLOAT"}}}, {"name": "StatefulPartitionedCall/Generator/sequential_11/ResBlock_3/sequential_6/instance_normalization_9/reduce_std/reduce_variance/sub", "op": "SquaredDifference", "input": ["StatefulPartitionedCall/Generator/sequential_11/ResBlock_3/sequential_6/conv2d_11/BiasAdd", "StatefulPartitionedCall/Generator/sequential_11/ResBlock_3/sequential_6/instance_normalization_9/reduce_std/reduce_variance/Mean"], "attr": {"T": {"type": "DT_FLOAT"}}}, {"name": "StatefulPartitionedCall/Generator/sequential_11/ResBlock_3/sequential_6/instance_normalization_9/reduce_std/reduce_variance/Mean_1", "op": "Mean", "input": ["StatefulPartitionedCall/Generator/sequential_11/ResBlock_3/sequential_6/instance_normalization_9/reduce_std/reduce_variance/sub", "StatefulPartitionedCall/Generator/sequential_11/ResBlock_3/sequential_6/instance_normalization_9/reduce_std/reduce_variance/Mean_1/reduction_indices"], "attr": {"keep_dims": {"b": true}, "Tidx": {"type": "DT_INT32"}, "T": {"type": "DT_FLOAT"}}}, {"name": "StatefulPartitionedCall/Generator/sequential_11/ResBlock_3/sequential_6/instance_normalization_9/reduce_std/Sqrt", "op": "Sqrt", "input": ["StatefulPartitionedCall/Generator/sequential_11/ResBlock_3/sequential_6/instance_normalization_9/reduce_std/reduce_variance/Mean_1"], "attr": {"T": {"type": "DT_FLOAT"}}}, {"name": "StatefulPartitionedCall/Generator/sequential_11/ResBlock_3/sequential_6/instance_normalization_9/add", "op": "AddV2", "input": ["StatefulPartitionedCall/Generator/sequential_11/ResBlock_3/sequential_6/instance_normalization_9/reduce_std/Sqrt", "StatefulPartitionedCall/Generator/sequential_11/ResBlock_3/sequential_6/instance_normalization_9/add/y"], "attr": {"T": {"type": "DT_FLOAT"}}}, {"name": "StatefulPartitionedCall/Generator/sequential_11/ResBlock_3/sequential_6/instance_normalization_9/truediv", "op": "RealDiv", "input": ["StatefulPartitionedCall/Generator/sequential_11/ResBlock_3/sequential_6/instance_normalization_9/sub", "StatefulPartitionedCall/Generator/sequential_11/ResBlock_3/sequential_6/instance_normalization_9/add"], "attr": {"T": {"type": "DT_FLOAT"}}}, {"name": "StatefulPartitionedCall/Generator/sequential_11/ResBlock_3/sequential_6/instance_normalization_9/mul", "op": "Mul", "input": ["StatefulPartitionedCall/Generator/sequential_11/ResBlock_3/sequential_6/instance_normalization_9/truediv", "StatefulPartitionedCall/Generator/sequential_11/ResBlock_3/sequential_6/instance_normalization_9/Reshape"], "attr": {"T": {"type": "DT_FLOAT"}}}, {"name": "StatefulPartitionedCall/Generator/sequential_11/ResBlock_3/sequential_6/instance_normalization_9/add_1", "op": "AddV2", "input": ["StatefulPartitionedCall/Generator/sequential_11/ResBlock_3/sequential_6/instance_normalization_9/mul", "StatefulPartitionedCall/Generator/sequential_11/ResBlock_3/sequential_6/instance_normalization_9/Reshape_1"], "attr": {"T": {"type": "DT_FLOAT"}}}, {"name": "StatefulPartitionedCall/Generator/sequential_11/ResBlock_3/sequential_6/re_lu_6/Relu", "op": "Relu", "input": ["StatefulPartitionedCall/Generator/sequential_11/ResBlock_3/sequential_6/instance_normalization_9/add_1"], "attr": {"T": {"type": "DT_FLOAT"}}}, {"name": "StatefulPartitionedCall/Generator/sequential_11/ResBlock_3/sequential_6/zero_padding2d_12/Pad", "op": "Pad", "input": ["StatefulPartitionedCall/Generator/sequential_11/ResBlock_3/sequential_6/re_lu_6/Relu", "StatefulPartitionedCall/Generator/sequential_11/ResBlock_3/sequential_6/zero_padding2d_12/Pad/paddings"], "attr": {"T": {"type": "DT_FLOAT"}, "Tpaddings": {"type": "DT_INT32"}}}, {"name": "StatefulPartitionedCall/Generator/sequential_11/ResBlock_3/sequential_6/conv2d_12/BiasAdd", "op": "_FusedConv2D", "input": ["StatefulPartitionedCall/Generator/sequential_11/ResBlock_3/sequential_6/zero_padding2d_12/Pad", "StatefulPartitionedCall/Generator/sequential_11/ResBlock_3/sequential_6/conv2d_12/Conv2D/ReadVariableOp", "StatefulPartitionedCall/Generator/sequential_11/ResBlock_3/sequential_6/conv2d_12/BiasAdd/ReadVariableOp"], "device": "/device:CPU:0", "attr": {"dilations": {"list": {"i": ["1", "1", "1", "1"]}}, "T": {"type": "DT_FLOAT"}, "data_format": {"s": "TkhXQw=="}, "strides": {"list": {"i": ["1", "1", "1", "1"]}}, "explicit_paddings": {"list": {}}, "use_cudnn_on_gpu": {"b": true}, "num_args": {"i": "1"}, "epsilon": {"f": 0.0}, "padding": {"s": "VkFMSUQ="}, "fused_ops": {"list": {"s": ["Qmlhc0FkZA=="]}}}}, {"name": "StatefulPartitionedCall/Generator/sequential_11/ResBlock_3/sequential_6/instance_normalization_10/Mean", "op": "Mean", "input": ["StatefulPartitionedCall/Generator/sequential_11/ResBlock_3/sequential_6/conv2d_12/BiasAdd", "StatefulPartitionedCall/Generator/sequential_11/ResBlock_3/sequential_6/instance_normalization_10/Mean/reduction_indices"], "attr": {"keep_dims": {"b": true}, "Tidx": {"type": "DT_INT32"}, "T": {"type": "DT_FLOAT"}}}, {"name": "StatefulPartitionedCall/Generator/sequential_11/ResBlock_3/sequential_6/instance_normalization_10/reduce_std/reduce_variance/Mean", "op": "Mean", "input": ["StatefulPartitionedCall/Generator/sequential_11/ResBlock_3/sequential_6/conv2d_12/BiasAdd", "StatefulPartitionedCall/Generator/sequential_11/ResBlock_3/sequential_6/instance_normalization_10/reduce_std/reduce_variance/Mean/reduction_indices"], "attr": {"keep_dims": {"b": true}, "Tidx": {"type": "DT_INT32"}, "T": {"type": "DT_FLOAT"}}}, {"name": "StatefulPartitionedCall/Generator/sequential_11/ResBlock_3/sequential_6/instance_normalization_10/sub", "op": "Sub", "input": ["StatefulPartitionedCall/Generator/sequential_11/ResBlock_3/sequential_6/conv2d_12/BiasAdd", "StatefulPartitionedCall/Generator/sequential_11/ResBlock_3/sequential_6/instance_normalization_10/Mean"], "attr": {"T": {"type": "DT_FLOAT"}}}, {"name": "StatefulPartitionedCall/Generator/sequential_11/ResBlock_3/sequential_6/instance_normalization_10/reduce_std/reduce_variance/sub", "op": "SquaredDifference", "input": ["StatefulPartitionedCall/Generator/sequential_11/ResBlock_3/sequential_6/conv2d_12/BiasAdd", "StatefulPartitionedCall/Generator/sequential_11/ResBlock_3/sequential_6/instance_normalization_10/reduce_std/reduce_variance/Mean"], "attr": {"T": {"type": "DT_FLOAT"}}}, {"name": "StatefulPartitionedCall/Generator/sequential_11/ResBlock_3/sequential_6/instance_normalization_10/reduce_std/reduce_variance/Mean_1", "op": "Mean", "input": ["StatefulPartitionedCall/Generator/sequential_11/ResBlock_3/sequential_6/instance_normalization_10/reduce_std/reduce_variance/sub", "StatefulPartitionedCall/Generator/sequential_11/ResBlock_3/sequential_6/instance_normalization_10/reduce_std/reduce_variance/Mean_1/reduction_indices"], "attr": {"keep_dims": {"b": true}, "Tidx": {"type": "DT_INT32"}, "T": {"type": "DT_FLOAT"}}}, {"name": "StatefulPartitionedCall/Generator/sequential_11/ResBlock_3/sequential_6/instance_normalization_10/reduce_std/Sqrt", "op": "Sqrt", "input": ["StatefulPartitionedCall/Generator/sequential_11/ResBlock_3/sequential_6/instance_normalization_10/reduce_std/reduce_variance/Mean_1"], "attr": {"T": {"type": "DT_FLOAT"}}}, {"name": "StatefulPartitionedCall/Generator/sequential_11/ResBlock_3/sequential_6/instance_normalization_10/add", "op": "AddV2", "input": ["StatefulPartitionedCall/Generator/sequential_11/ResBlock_3/sequential_6/instance_normalization_10/reduce_std/Sqrt", "StatefulPartitionedCall/Generator/sequential_11/ResBlock_3/sequential_6/instance_normalization_10/add/y"], "attr": {"T": {"type": "DT_FLOAT"}}}, {"name": "StatefulPartitionedCall/Generator/sequential_11/ResBlock_3/sequential_6/instance_normalization_10/truediv", "op": "RealDiv", "input": ["StatefulPartitionedCall/Generator/sequential_11/ResBlock_3/sequential_6/instance_normalization_10/sub", "StatefulPartitionedCall/Generator/sequential_11/ResBlock_3/sequential_6/instance_normalization_10/add"], "attr": {"T": {"type": "DT_FLOAT"}}}, {"name": "StatefulPartitionedCall/Generator/sequential_11/ResBlock_3/sequential_6/instance_normalization_10/mul", "op": "Mul", "input": ["StatefulPartitionedCall/Generator/sequential_11/ResBlock_3/sequential_6/instance_normalization_10/truediv", "StatefulPartitionedCall/Generator/sequential_11/ResBlock_3/sequential_6/instance_normalization_10/Reshape"], "attr": {"T": {"type": "DT_FLOAT"}}}, {"name": "StatefulPartitionedCall/Generator/sequential_11/ResBlock_3/sequential_6/instance_normalization_10/add_1", "op": "AddV2", "input": ["StatefulPartitionedCall/Generator/sequential_11/ResBlock_3/sequential_6/instance_normalization_10/mul", "StatefulPartitionedCall/Generator/sequential_11/ResBlock_3/sequential_6/instance_normalization_10/Reshape_1"], "attr": {"T": {"type": "DT_FLOAT"}}}, {"name": "StatefulPartitionedCall/Generator/sequential_11/ResBlock_3/add_3/add", "op": "AddV2", "input": ["StatefulPartitionedCall/Generator/sequential_11/ResBlock_3/sequential_6/instance_normalization_10/add_1", "StatefulPartitionedCall/Generator/sequential_11/ResBlock_2/add_2/add"], "attr": {"T": {"type": "DT_FLOAT"}}}, {"name": "StatefulPartitionedCall/Generator/sequential_11/ResBlock_4/sequential_7/zero_padding2d_13/Pad", "op": "Pad", "input": ["StatefulPartitionedCall/Generator/sequential_11/ResBlock_3/add_3/add", "StatefulPartitionedCall/Generator/sequential_11/ResBlock_4/sequential_7/zero_padding2d_13/Pad/paddings"], "attr": {"T": {"type": "DT_FLOAT"}, "Tpaddings": {"type": "DT_INT32"}}}, {"name": "StatefulPartitionedCall/Generator/sequential_11/ResBlock_4/sequential_7/conv2d_13/BiasAdd", "op": "_FusedConv2D", "input": ["StatefulPartitionedCall/Generator/sequential_11/ResBlock_4/sequential_7/zero_padding2d_13/Pad", "StatefulPartitionedCall/Generator/sequential_11/ResBlock_4/sequential_7/conv2d_13/Conv2D/ReadVariableOp", "StatefulPartitionedCall/Generator/sequential_11/ResBlock_4/sequential_7/conv2d_13/BiasAdd/ReadVariableOp"], "device": "/device:CPU:0", "attr": {"dilations": {"list": {"i": ["1", "1", "1", "1"]}}, "T": {"type": "DT_FLOAT"}, "data_format": {"s": "TkhXQw=="}, "strides": {"list": {"i": ["1", "1", "1", "1"]}}, "explicit_paddings": {"list": {}}, "use_cudnn_on_gpu": {"b": true}, "num_args": {"i": "1"}, "epsilon": {"f": 0.0}, "padding": {"s": "VkFMSUQ="}, "fused_ops": {"list": {"s": ["Qmlhc0FkZA=="]}}}}, {"name": "StatefulPartitionedCall/Generator/sequential_11/ResBlock_4/sequential_7/instance_normalization_11/Mean", "op": "Mean", "input": ["StatefulPartitionedCall/Generator/sequential_11/ResBlock_4/sequential_7/conv2d_13/BiasAdd", "StatefulPartitionedCall/Generator/sequential_11/ResBlock_4/sequential_7/instance_normalization_11/Mean/reduction_indices"], "attr": {"keep_dims": {"b": true}, "Tidx": {"type": "DT_INT32"}, "T": {"type": "DT_FLOAT"}}}, {"name": "StatefulPartitionedCall/Generator/sequential_11/ResBlock_4/sequential_7/instance_normalization_11/reduce_std/reduce_variance/Mean", "op": "Mean", "input": ["StatefulPartitionedCall/Generator/sequential_11/ResBlock_4/sequential_7/conv2d_13/BiasAdd", "StatefulPartitionedCall/Generator/sequential_11/ResBlock_4/sequential_7/instance_normalization_11/reduce_std/reduce_variance/Mean/reduction_indices"], "attr": {"keep_dims": {"b": true}, "Tidx": {"type": "DT_INT32"}, "T": {"type": "DT_FLOAT"}}}, {"name": "StatefulPartitionedCall/Generator/sequential_11/ResBlock_4/sequential_7/instance_normalization_11/sub", "op": "Sub", "input": ["StatefulPartitionedCall/Generator/sequential_11/ResBlock_4/sequential_7/conv2d_13/BiasAdd", "StatefulPartitionedCall/Generator/sequential_11/ResBlock_4/sequential_7/instance_normalization_11/Mean"], "attr": {"T": {"type": "DT_FLOAT"}}}, {"name": "StatefulPartitionedCall/Generator/sequential_11/ResBlock_4/sequential_7/instance_normalization_11/reduce_std/reduce_variance/sub", "op": "SquaredDifference", "input": ["StatefulPartitionedCall/Generator/sequential_11/ResBlock_4/sequential_7/conv2d_13/BiasAdd", "StatefulPartitionedCall/Generator/sequential_11/ResBlock_4/sequential_7/instance_normalization_11/reduce_std/reduce_variance/Mean"], "attr": {"T": {"type": "DT_FLOAT"}}}, {"name": "StatefulPartitionedCall/Generator/sequential_11/ResBlock_4/sequential_7/instance_normalization_11/reduce_std/reduce_variance/Mean_1", "op": "Mean", "input": ["StatefulPartitionedCall/Generator/sequential_11/ResBlock_4/sequential_7/instance_normalization_11/reduce_std/reduce_variance/sub", "StatefulPartitionedCall/Generator/sequential_11/ResBlock_4/sequential_7/instance_normalization_11/reduce_std/reduce_variance/Mean_1/reduction_indices"], "attr": {"keep_dims": {"b": true}, "Tidx": {"type": "DT_INT32"}, "T": {"type": "DT_FLOAT"}}}, {"name": "StatefulPartitionedCall/Generator/sequential_11/ResBlock_4/sequential_7/instance_normalization_11/reduce_std/Sqrt", "op": "Sqrt", "input": ["StatefulPartitionedCall/Generator/sequential_11/ResBlock_4/sequential_7/instance_normalization_11/reduce_std/reduce_variance/Mean_1"], "attr": {"T": {"type": "DT_FLOAT"}}}, {"name": "StatefulPartitionedCall/Generator/sequential_11/ResBlock_4/sequential_7/instance_normalization_11/add", "op": "AddV2", "input": ["StatefulPartitionedCall/Generator/sequential_11/ResBlock_4/sequential_7/instance_normalization_11/reduce_std/Sqrt", "StatefulPartitionedCall/Generator/sequential_11/ResBlock_4/sequential_7/instance_normalization_11/add/y"], "attr": {"T": {"type": "DT_FLOAT"}}}, {"name": "StatefulPartitionedCall/Generator/sequential_11/ResBlock_4/sequential_7/instance_normalization_11/truediv", "op": "RealDiv", "input": ["StatefulPartitionedCall/Generator/sequential_11/ResBlock_4/sequential_7/instance_normalization_11/sub", "StatefulPartitionedCall/Generator/sequential_11/ResBlock_4/sequential_7/instance_normalization_11/add"], "attr": {"T": {"type": "DT_FLOAT"}}}, {"name": "StatefulPartitionedCall/Generator/sequential_11/ResBlock_4/sequential_7/instance_normalization_11/mul", "op": "Mul", "input": ["StatefulPartitionedCall/Generator/sequential_11/ResBlock_4/sequential_7/instance_normalization_11/truediv", "StatefulPartitionedCall/Generator/sequential_11/ResBlock_4/sequential_7/instance_normalization_11/Reshape"], "attr": {"T": {"type": "DT_FLOAT"}}}, {"name": "StatefulPartitionedCall/Generator/sequential_11/ResBlock_4/sequential_7/instance_normalization_11/add_1", "op": "AddV2", "input": ["StatefulPartitionedCall/Generator/sequential_11/ResBlock_4/sequential_7/instance_normalization_11/mul", "StatefulPartitionedCall/Generator/sequential_11/ResBlock_4/sequential_7/instance_normalization_11/Reshape_1"], "attr": {"T": {"type": "DT_FLOAT"}}}, {"name": "StatefulPartitionedCall/Generator/sequential_11/ResBlock_4/sequential_7/re_lu_7/Relu", "op": "Relu", "input": ["StatefulPartitionedCall/Generator/sequential_11/ResBlock_4/sequential_7/instance_normalization_11/add_1"], "attr": {"T": {"type": "DT_FLOAT"}}}, {"name": "StatefulPartitionedCall/Generator/sequential_11/ResBlock_4/sequential_7/zero_padding2d_14/Pad", "op": "Pad", "input": ["StatefulPartitionedCall/Generator/sequential_11/ResBlock_4/sequential_7/re_lu_7/Relu", "StatefulPartitionedCall/Generator/sequential_11/ResBlock_4/sequential_7/zero_padding2d_14/Pad/paddings"], "attr": {"T": {"type": "DT_FLOAT"}, "Tpaddings": {"type": "DT_INT32"}}}, {"name": "StatefulPartitionedCall/Generator/sequential_11/ResBlock_4/sequential_7/conv2d_14/BiasAdd", "op": "_FusedConv2D", "input": ["StatefulPartitionedCall/Generator/sequential_11/ResBlock_4/sequential_7/zero_padding2d_14/Pad", "StatefulPartitionedCall/Generator/sequential_11/ResBlock_4/sequential_7/conv2d_14/Conv2D/ReadVariableOp", "StatefulPartitionedCall/Generator/sequential_11/ResBlock_4/sequential_7/conv2d_14/BiasAdd/ReadVariableOp"], "device": "/device:CPU:0", "attr": {"dilations": {"list": {"i": ["1", "1", "1", "1"]}}, "T": {"type": "DT_FLOAT"}, "data_format": {"s": "TkhXQw=="}, "strides": {"list": {"i": ["1", "1", "1", "1"]}}, "explicit_paddings": {"list": {}}, "use_cudnn_on_gpu": {"b": true}, "num_args": {"i": "1"}, "epsilon": {"f": 0.0}, "padding": {"s": "VkFMSUQ="}, "fused_ops": {"list": {"s": ["Qmlhc0FkZA=="]}}}}, {"name": "StatefulPartitionedCall/Generator/sequential_11/ResBlock_4/sequential_7/instance_normalization_12/Mean", "op": "Mean", "input": ["StatefulPartitionedCall/Generator/sequential_11/ResBlock_4/sequential_7/conv2d_14/BiasAdd", "StatefulPartitionedCall/Generator/sequential_11/ResBlock_4/sequential_7/instance_normalization_12/Mean/reduction_indices"], "attr": {"keep_dims": {"b": true}, "Tidx": {"type": "DT_INT32"}, "T": {"type": "DT_FLOAT"}}}, {"name": "StatefulPartitionedCall/Generator/sequential_11/ResBlock_4/sequential_7/instance_normalization_12/reduce_std/reduce_variance/Mean", "op": "Mean", "input": ["StatefulPartitionedCall/Generator/sequential_11/ResBlock_4/sequential_7/conv2d_14/BiasAdd", "StatefulPartitionedCall/Generator/sequential_11/ResBlock_4/sequential_7/instance_normalization_12/reduce_std/reduce_variance/Mean/reduction_indices"], "attr": {"keep_dims": {"b": true}, "Tidx": {"type": "DT_INT32"}, "T": {"type": "DT_FLOAT"}}}, {"name": "StatefulPartitionedCall/Generator/sequential_11/ResBlock_4/sequential_7/instance_normalization_12/sub", "op": "Sub", "input": ["StatefulPartitionedCall/Generator/sequential_11/ResBlock_4/sequential_7/conv2d_14/BiasAdd", "StatefulPartitionedCall/Generator/sequential_11/ResBlock_4/sequential_7/instance_normalization_12/Mean"], "attr": {"T": {"type": "DT_FLOAT"}}}, {"name": "StatefulPartitionedCall/Generator/sequential_11/ResBlock_4/sequential_7/instance_normalization_12/reduce_std/reduce_variance/sub", "op": "SquaredDifference", "input": ["StatefulPartitionedCall/Generator/sequential_11/ResBlock_4/sequential_7/conv2d_14/BiasAdd", "StatefulPartitionedCall/Generator/sequential_11/ResBlock_4/sequential_7/instance_normalization_12/reduce_std/reduce_variance/Mean"], "attr": {"T": {"type": "DT_FLOAT"}}}, {"name": "StatefulPartitionedCall/Generator/sequential_11/ResBlock_4/sequential_7/instance_normalization_12/reduce_std/reduce_variance/Mean_1", "op": "Mean", "input": ["StatefulPartitionedCall/Generator/sequential_11/ResBlock_4/sequential_7/instance_normalization_12/reduce_std/reduce_variance/sub", "StatefulPartitionedCall/Generator/sequential_11/ResBlock_4/sequential_7/instance_normalization_12/reduce_std/reduce_variance/Mean_1/reduction_indices"], "attr": {"keep_dims": {"b": true}, "Tidx": {"type": "DT_INT32"}, "T": {"type": "DT_FLOAT"}}}, {"name": "StatefulPartitionedCall/Generator/sequential_11/ResBlock_4/sequential_7/instance_normalization_12/reduce_std/Sqrt", "op": "Sqrt", "input": ["StatefulPartitionedCall/Generator/sequential_11/ResBlock_4/sequential_7/instance_normalization_12/reduce_std/reduce_variance/Mean_1"], "attr": {"T": {"type": "DT_FLOAT"}}}, {"name": "StatefulPartitionedCall/Generator/sequential_11/ResBlock_4/sequential_7/instance_normalization_12/add", "op": "AddV2", "input": ["StatefulPartitionedCall/Generator/sequential_11/ResBlock_4/sequential_7/instance_normalization_12/reduce_std/Sqrt", "StatefulPartitionedCall/Generator/sequential_11/ResBlock_4/sequential_7/instance_normalization_12/add/y"], "attr": {"T": {"type": "DT_FLOAT"}}}, {"name": "StatefulPartitionedCall/Generator/sequential_11/ResBlock_4/sequential_7/instance_normalization_12/truediv", "op": "RealDiv", "input": ["StatefulPartitionedCall/Generator/sequential_11/ResBlock_4/sequential_7/instance_normalization_12/sub", "StatefulPartitionedCall/Generator/sequential_11/ResBlock_4/sequential_7/instance_normalization_12/add"], "attr": {"T": {"type": "DT_FLOAT"}}}, {"name": "StatefulPartitionedCall/Generator/sequential_11/ResBlock_4/sequential_7/instance_normalization_12/mul", "op": "Mul", "input": ["StatefulPartitionedCall/Generator/sequential_11/ResBlock_4/sequential_7/instance_normalization_12/truediv", "StatefulPartitionedCall/Generator/sequential_11/ResBlock_4/sequential_7/instance_normalization_12/Reshape"], "attr": {"T": {"type": "DT_FLOAT"}}}, {"name": "StatefulPartitionedCall/Generator/sequential_11/ResBlock_4/sequential_7/instance_normalization_12/add_1", "op": "AddV2", "input": ["StatefulPartitionedCall/Generator/sequential_11/ResBlock_4/sequential_7/instance_normalization_12/mul", "StatefulPartitionedCall/Generator/sequential_11/ResBlock_4/sequential_7/instance_normalization_12/Reshape_1"], "attr": {"T": {"type": "DT_FLOAT"}}}, {"name": "StatefulPartitionedCall/Generator/sequential_11/ResBlock_4/add_4/add", "op": "AddV2", "input": ["StatefulPartitionedCall/Generator/sequential_11/ResBlock_4/sequential_7/instance_normalization_12/add_1", "StatefulPartitionedCall/Generator/sequential_11/ResBlock_3/add_3/add"], "attr": {"T": {"type": "DT_FLOAT"}}}, {"name": "StatefulPartitionedCall/Generator/sequential_11/ResBlock_5/sequential_8/zero_padding2d_15/Pad", "op": "Pad", "input": ["StatefulPartitionedCall/Generator/sequential_11/ResBlock_4/add_4/add", "StatefulPartitionedCall/Generator/sequential_11/ResBlock_5/sequential_8/zero_padding2d_15/Pad/paddings"], "attr": {"T": {"type": "DT_FLOAT"}, "Tpaddings": {"type": "DT_INT32"}}}, {"name": "StatefulPartitionedCall/Generator/sequential_11/ResBlock_5/sequential_8/conv2d_15/BiasAdd", "op": "_FusedConv2D", "input": ["StatefulPartitionedCall/Generator/sequential_11/ResBlock_5/sequential_8/zero_padding2d_15/Pad", "StatefulPartitionedCall/Generator/sequential_11/ResBlock_5/sequential_8/conv2d_15/Conv2D/ReadVariableOp", "StatefulPartitionedCall/Generator/sequential_11/ResBlock_5/sequential_8/conv2d_15/BiasAdd/ReadVariableOp"], "device": "/device:CPU:0", "attr": {"dilations": {"list": {"i": ["1", "1", "1", "1"]}}, "T": {"type": "DT_FLOAT"}, "data_format": {"s": "TkhXQw=="}, "strides": {"list": {"i": ["1", "1", "1", "1"]}}, "explicit_paddings": {"list": {}}, "use_cudnn_on_gpu": {"b": true}, "num_args": {"i": "1"}, "epsilon": {"f": 0.0}, "padding": {"s": "VkFMSUQ="}, "fused_ops": {"list": {"s": ["Qmlhc0FkZA=="]}}}}, {"name": "StatefulPartitionedCall/Generator/sequential_11/ResBlock_5/sequential_8/instance_normalization_13/Mean", "op": "Mean", "input": ["StatefulPartitionedCall/Generator/sequential_11/ResBlock_5/sequential_8/conv2d_15/BiasAdd", "StatefulPartitionedCall/Generator/sequential_11/ResBlock_5/sequential_8/instance_normalization_13/Mean/reduction_indices"], "attr": {"keep_dims": {"b": true}, "Tidx": {"type": "DT_INT32"}, "T": {"type": "DT_FLOAT"}}}, {"name": "StatefulPartitionedCall/Generator/sequential_11/ResBlock_5/sequential_8/instance_normalization_13/reduce_std/reduce_variance/Mean", "op": "Mean", "input": ["StatefulPartitionedCall/Generator/sequential_11/ResBlock_5/sequential_8/conv2d_15/BiasAdd", "StatefulPartitionedCall/Generator/sequential_11/ResBlock_5/sequential_8/instance_normalization_13/reduce_std/reduce_variance/Mean/reduction_indices"], "attr": {"keep_dims": {"b": true}, "Tidx": {"type": "DT_INT32"}, "T": {"type": "DT_FLOAT"}}}, {"name": "StatefulPartitionedCall/Generator/sequential_11/ResBlock_5/sequential_8/instance_normalization_13/sub", "op": "Sub", "input": ["StatefulPartitionedCall/Generator/sequential_11/ResBlock_5/sequential_8/conv2d_15/BiasAdd", "StatefulPartitionedCall/Generator/sequential_11/ResBlock_5/sequential_8/instance_normalization_13/Mean"], "attr": {"T": {"type": "DT_FLOAT"}}}, {"name": "StatefulPartitionedCall/Generator/sequential_11/ResBlock_5/sequential_8/instance_normalization_13/reduce_std/reduce_variance/sub", "op": "SquaredDifference", "input": ["StatefulPartitionedCall/Generator/sequential_11/ResBlock_5/sequential_8/conv2d_15/BiasAdd", "StatefulPartitionedCall/Generator/sequential_11/ResBlock_5/sequential_8/instance_normalization_13/reduce_std/reduce_variance/Mean"], "attr": {"T": {"type": "DT_FLOAT"}}}, {"name": "StatefulPartitionedCall/Generator/sequential_11/ResBlock_5/sequential_8/instance_normalization_13/reduce_std/reduce_variance/Mean_1", "op": "Mean", "input": ["StatefulPartitionedCall/Generator/sequential_11/ResBlock_5/sequential_8/instance_normalization_13/reduce_std/reduce_variance/sub", "StatefulPartitionedCall/Generator/sequential_11/ResBlock_5/sequential_8/instance_normalization_13/reduce_std/reduce_variance/Mean_1/reduction_indices"], "attr": {"keep_dims": {"b": true}, "Tidx": {"type": "DT_INT32"}, "T": {"type": "DT_FLOAT"}}}, {"name": "StatefulPartitionedCall/Generator/sequential_11/ResBlock_5/sequential_8/instance_normalization_13/reduce_std/Sqrt", "op": "Sqrt", "input": ["StatefulPartitionedCall/Generator/sequential_11/ResBlock_5/sequential_8/instance_normalization_13/reduce_std/reduce_variance/Mean_1"], "attr": {"T": {"type": "DT_FLOAT"}}}, {"name": "StatefulPartitionedCall/Generator/sequential_11/ResBlock_5/sequential_8/instance_normalization_13/add", "op": "AddV2", "input": ["StatefulPartitionedCall/Generator/sequential_11/ResBlock_5/sequential_8/instance_normalization_13/reduce_std/Sqrt", "StatefulPartitionedCall/Generator/sequential_11/ResBlock_5/sequential_8/instance_normalization_13/add/y"], "attr": {"T": {"type": "DT_FLOAT"}}}, {"name": "StatefulPartitionedCall/Generator/sequential_11/ResBlock_5/sequential_8/instance_normalization_13/truediv", "op": "RealDiv", "input": ["StatefulPartitionedCall/Generator/sequential_11/ResBlock_5/sequential_8/instance_normalization_13/sub", "StatefulPartitionedCall/Generator/sequential_11/ResBlock_5/sequential_8/instance_normalization_13/add"], "attr": {"T": {"type": "DT_FLOAT"}}}, {"name": "StatefulPartitionedCall/Generator/sequential_11/ResBlock_5/sequential_8/instance_normalization_13/mul", "op": "Mul", "input": ["StatefulPartitionedCall/Generator/sequential_11/ResBlock_5/sequential_8/instance_normalization_13/truediv", "StatefulPartitionedCall/Generator/sequential_11/ResBlock_5/sequential_8/instance_normalization_13/Reshape"], "attr": {"T": {"type": "DT_FLOAT"}}}, {"name": "StatefulPartitionedCall/Generator/sequential_11/ResBlock_5/sequential_8/instance_normalization_13/add_1", "op": "AddV2", "input": ["StatefulPartitionedCall/Generator/sequential_11/ResBlock_5/sequential_8/instance_normalization_13/mul", "StatefulPartitionedCall/Generator/sequential_11/ResBlock_5/sequential_8/instance_normalization_13/Reshape_1"], "attr": {"T": {"type": "DT_FLOAT"}}}, {"name": "StatefulPartitionedCall/Generator/sequential_11/ResBlock_5/sequential_8/re_lu_8/Relu", "op": "Relu", "input": ["StatefulPartitionedCall/Generator/sequential_11/ResBlock_5/sequential_8/instance_normalization_13/add_1"], "attr": {"T": {"type": "DT_FLOAT"}}}, {"name": "StatefulPartitionedCall/Generator/sequential_11/ResBlock_5/sequential_8/zero_padding2d_16/Pad", "op": "Pad", "input": ["StatefulPartitionedCall/Generator/sequential_11/ResBlock_5/sequential_8/re_lu_8/Relu", "StatefulPartitionedCall/Generator/sequential_11/ResBlock_5/sequential_8/zero_padding2d_16/Pad/paddings"], "attr": {"T": {"type": "DT_FLOAT"}, "Tpaddings": {"type": "DT_INT32"}}}, {"name": "StatefulPartitionedCall/Generator/sequential_11/ResBlock_5/sequential_8/conv2d_16/BiasAdd", "op": "_FusedConv2D", "input": ["StatefulPartitionedCall/Generator/sequential_11/ResBlock_5/sequential_8/zero_padding2d_16/Pad", "StatefulPartitionedCall/Generator/sequential_11/ResBlock_5/sequential_8/conv2d_16/Conv2D/ReadVariableOp", "StatefulPartitionedCall/Generator/sequential_11/ResBlock_5/sequential_8/conv2d_16/BiasAdd/ReadVariableOp"], "device": "/device:CPU:0", "attr": {"dilations": {"list": {"i": ["1", "1", "1", "1"]}}, "T": {"type": "DT_FLOAT"}, "data_format": {"s": "TkhXQw=="}, "strides": {"list": {"i": ["1", "1", "1", "1"]}}, "explicit_paddings": {"list": {}}, "use_cudnn_on_gpu": {"b": true}, "num_args": {"i": "1"}, "epsilon": {"f": 0.0}, "padding": {"s": "VkFMSUQ="}, "fused_ops": {"list": {"s": ["Qmlhc0FkZA=="]}}}}, {"name": "StatefulPartitionedCall/Generator/sequential_11/ResBlock_5/sequential_8/instance_normalization_14/Mean", "op": "Mean", "input": ["StatefulPartitionedCall/Generator/sequential_11/ResBlock_5/sequential_8/conv2d_16/BiasAdd", "StatefulPartitionedCall/Generator/sequential_11/ResBlock_5/sequential_8/instance_normalization_14/Mean/reduction_indices"], "attr": {"keep_dims": {"b": true}, "Tidx": {"type": "DT_INT32"}, "T": {"type": "DT_FLOAT"}}}, {"name": "StatefulPartitionedCall/Generator/sequential_11/ResBlock_5/sequential_8/instance_normalization_14/reduce_std/reduce_variance/Mean", "op": "Mean", "input": ["StatefulPartitionedCall/Generator/sequential_11/ResBlock_5/sequential_8/conv2d_16/BiasAdd", "StatefulPartitionedCall/Generator/sequential_11/ResBlock_5/sequential_8/instance_normalization_14/reduce_std/reduce_variance/Mean/reduction_indices"], "attr": {"keep_dims": {"b": true}, "Tidx": {"type": "DT_INT32"}, "T": {"type": "DT_FLOAT"}}}, {"name": "StatefulPartitionedCall/Generator/sequential_11/ResBlock_5/sequential_8/instance_normalization_14/sub", "op": "Sub", "input": ["StatefulPartitionedCall/Generator/sequential_11/ResBlock_5/sequential_8/conv2d_16/BiasAdd", "StatefulPartitionedCall/Generator/sequential_11/ResBlock_5/sequential_8/instance_normalization_14/Mean"], "attr": {"T": {"type": "DT_FLOAT"}}}, {"name": "StatefulPartitionedCall/Generator/sequential_11/ResBlock_5/sequential_8/instance_normalization_14/reduce_std/reduce_variance/sub", "op": "SquaredDifference", "input": ["StatefulPartitionedCall/Generator/sequential_11/ResBlock_5/sequential_8/conv2d_16/BiasAdd", "StatefulPartitionedCall/Generator/sequential_11/ResBlock_5/sequential_8/instance_normalization_14/reduce_std/reduce_variance/Mean"], "attr": {"T": {"type": "DT_FLOAT"}}}, {"name": "StatefulPartitionedCall/Generator/sequential_11/ResBlock_5/sequential_8/instance_normalization_14/reduce_std/reduce_variance/Mean_1", "op": "Mean", "input": ["StatefulPartitionedCall/Generator/sequential_11/ResBlock_5/sequential_8/instance_normalization_14/reduce_std/reduce_variance/sub", "StatefulPartitionedCall/Generator/sequential_11/ResBlock_5/sequential_8/instance_normalization_14/reduce_std/reduce_variance/Mean_1/reduction_indices"], "attr": {"keep_dims": {"b": true}, "Tidx": {"type": "DT_INT32"}, "T": {"type": "DT_FLOAT"}}}, {"name": "StatefulPartitionedCall/Generator/sequential_11/ResBlock_5/sequential_8/instance_normalization_14/reduce_std/Sqrt", "op": "Sqrt", "input": ["StatefulPartitionedCall/Generator/sequential_11/ResBlock_5/sequential_8/instance_normalization_14/reduce_std/reduce_variance/Mean_1"], "attr": {"T": {"type": "DT_FLOAT"}}}, {"name": "StatefulPartitionedCall/Generator/sequential_11/ResBlock_5/sequential_8/instance_normalization_14/add", "op": "AddV2", "input": ["StatefulPartitionedCall/Generator/sequential_11/ResBlock_5/sequential_8/instance_normalization_14/reduce_std/Sqrt", "StatefulPartitionedCall/Generator/sequential_11/ResBlock_5/sequential_8/instance_normalization_14/add/y"], "attr": {"T": {"type": "DT_FLOAT"}}}, {"name": "StatefulPartitionedCall/Generator/sequential_11/ResBlock_5/sequential_8/instance_normalization_14/truediv", "op": "RealDiv", "input": ["StatefulPartitionedCall/Generator/sequential_11/ResBlock_5/sequential_8/instance_normalization_14/sub", "StatefulPartitionedCall/Generator/sequential_11/ResBlock_5/sequential_8/instance_normalization_14/add"], "attr": {"T": {"type": "DT_FLOAT"}}}, {"name": "StatefulPartitionedCall/Generator/sequential_11/ResBlock_5/sequential_8/instance_normalization_14/mul", "op": "Mul", "input": ["StatefulPartitionedCall/Generator/sequential_11/ResBlock_5/sequential_8/instance_normalization_14/truediv", "StatefulPartitionedCall/Generator/sequential_11/ResBlock_5/sequential_8/instance_normalization_14/Reshape"], "attr": {"T": {"type": "DT_FLOAT"}}}, {"name": "StatefulPartitionedCall/Generator/sequential_11/ResBlock_5/sequential_8/instance_normalization_14/add_1", "op": "AddV2", "input": ["StatefulPartitionedCall/Generator/sequential_11/ResBlock_5/sequential_8/instance_normalization_14/mul", "StatefulPartitionedCall/Generator/sequential_11/ResBlock_5/sequential_8/instance_normalization_14/Reshape_1"], "attr": {"T": {"type": "DT_FLOAT"}}}, {"name": "StatefulPartitionedCall/Generator/sequential_11/ResBlock_5/add_5/add", "op": "AddV2", "input": ["StatefulPartitionedCall/Generator/sequential_11/ResBlock_5/sequential_8/instance_normalization_14/add_1", "StatefulPartitionedCall/Generator/sequential_11/ResBlock_4/add_4/add"], "attr": {"T": {"type": "DT_FLOAT"}}}, {"name": "StatefulPartitionedCall/Generator/sequential_11/ResBlock_6/sequential_9/zero_padding2d_17/Pad", "op": "Pad", "input": ["StatefulPartitionedCall/Generator/sequential_11/ResBlock_5/add_5/add", "StatefulPartitionedCall/Generator/sequential_11/ResBlock_6/sequential_9/zero_padding2d_17/Pad/paddings"], "attr": {"T": {"type": "DT_FLOAT"}, "Tpaddings": {"type": "DT_INT32"}}}, {"name": "StatefulPartitionedCall/Generator/sequential_11/ResBlock_6/sequential_9/conv2d_17/BiasAdd", "op": "_FusedConv2D", "input": ["StatefulPartitionedCall/Generator/sequential_11/ResBlock_6/sequential_9/zero_padding2d_17/Pad", "StatefulPartitionedCall/Generator/sequential_11/ResBlock_6/sequential_9/conv2d_17/Conv2D/ReadVariableOp", "StatefulPartitionedCall/Generator/sequential_11/ResBlock_6/sequential_9/conv2d_17/BiasAdd/ReadVariableOp"], "device": "/device:CPU:0", "attr": {"dilations": {"list": {"i": ["1", "1", "1", "1"]}}, "T": {"type": "DT_FLOAT"}, "data_format": {"s": "TkhXQw=="}, "strides": {"list": {"i": ["1", "1", "1", "1"]}}, "explicit_paddings": {"list": {}}, "use_cudnn_on_gpu": {"b": true}, "num_args": {"i": "1"}, "epsilon": {"f": 0.0}, "padding": {"s": "VkFMSUQ="}, "fused_ops": {"list": {"s": ["Qmlhc0FkZA=="]}}}}, {"name": "StatefulPartitionedCall/Generator/sequential_11/ResBlock_6/sequential_9/instance_normalization_15/Mean", "op": "Mean", "input": ["StatefulPartitionedCall/Generator/sequential_11/ResBlock_6/sequential_9/conv2d_17/BiasAdd", "StatefulPartitionedCall/Generator/sequential_11/ResBlock_6/sequential_9/instance_normalization_15/Mean/reduction_indices"], "attr": {"keep_dims": {"b": true}, "Tidx": {"type": "DT_INT32"}, "T": {"type": "DT_FLOAT"}}}, {"name": "StatefulPartitionedCall/Generator/sequential_11/ResBlock_6/sequential_9/instance_normalization_15/reduce_std/reduce_variance/Mean", "op": "Mean", "input": ["StatefulPartitionedCall/Generator/sequential_11/ResBlock_6/sequential_9/conv2d_17/BiasAdd", "StatefulPartitionedCall/Generator/sequential_11/ResBlock_6/sequential_9/instance_normalization_15/reduce_std/reduce_variance/Mean/reduction_indices"], "attr": {"keep_dims": {"b": true}, "Tidx": {"type": "DT_INT32"}, "T": {"type": "DT_FLOAT"}}}, {"name": "StatefulPartitionedCall/Generator/sequential_11/ResBlock_6/sequential_9/instance_normalization_15/sub", "op": "Sub", "input": ["StatefulPartitionedCall/Generator/sequential_11/ResBlock_6/sequential_9/conv2d_17/BiasAdd", "StatefulPartitionedCall/Generator/sequential_11/ResBlock_6/sequential_9/instance_normalization_15/Mean"], "attr": {"T": {"type": "DT_FLOAT"}}}, {"name": "StatefulPartitionedCall/Generator/sequential_11/ResBlock_6/sequential_9/instance_normalization_15/reduce_std/reduce_variance/sub", "op": "SquaredDifference", "input": ["StatefulPartitionedCall/Generator/sequential_11/ResBlock_6/sequential_9/conv2d_17/BiasAdd", "StatefulPartitionedCall/Generator/sequential_11/ResBlock_6/sequential_9/instance_normalization_15/reduce_std/reduce_variance/Mean"], "attr": {"T": {"type": "DT_FLOAT"}}}, {"name": "StatefulPartitionedCall/Generator/sequential_11/ResBlock_6/sequential_9/instance_normalization_15/reduce_std/reduce_variance/Mean_1", "op": "Mean", "input": ["StatefulPartitionedCall/Generator/sequential_11/ResBlock_6/sequential_9/instance_normalization_15/reduce_std/reduce_variance/sub", "StatefulPartitionedCall/Generator/sequential_11/ResBlock_6/sequential_9/instance_normalization_15/reduce_std/reduce_variance/Mean_1/reduction_indices"], "attr": {"keep_dims": {"b": true}, "Tidx": {"type": "DT_INT32"}, "T": {"type": "DT_FLOAT"}}}, {"name": "StatefulPartitionedCall/Generator/sequential_11/ResBlock_6/sequential_9/instance_normalization_15/reduce_std/Sqrt", "op": "Sqrt", "input": ["StatefulPartitionedCall/Generator/sequential_11/ResBlock_6/sequential_9/instance_normalization_15/reduce_std/reduce_variance/Mean_1"], "attr": {"T": {"type": "DT_FLOAT"}}}, {"name": "StatefulPartitionedCall/Generator/sequential_1…
args": {"i": "1"}, "epsilon": {"f": 0.0}, "padding": {"s": "VkFMSUQ="}, "fused_ops": {"list": {"s": ["Qmlhc0FkZA=="]}}}}, {"name": "StatefulPartitionedCall/Generator/UpSampleConv/ConvBlock/sequential_12/zero_padding2d_22/Pad", "op": "Pad", "input": ["StatefulPartitionedCall/Generator/UpSampleConv/ConvBlock/sequential_12/conv2d_21/BiasAdd", "StatefulPartitionedCall/Generator/UpSampleConv/ConvBlock/sequential_12/zero_padding2d_22/Pad/paddings"], "attr": {"T": {"type": "DT_FLOAT"}, "Tpaddings": {"type": "DT_INT32"}}}, {"name": "StatefulPartitionedCall/Generator/UpSampleConv/ConvBlock/sequential_12/conv2d_22/BiasAdd", "op": "_FusedConv2D", "input": ["StatefulPartitionedCall/Generator/UpSampleConv/ConvBlock/sequential_12/zero_padding2d_22/Pad", "StatefulPartitionedCall/Generator/UpSampleConv/ConvBlock/sequential_12/conv2d_22/Conv2D/ReadVariableOp", "StatefulPartitionedCall/Generator/UpSampleConv/ConvBlock/sequential_12/conv2d_22/BiasAdd/ReadVariableOp"], "device": "/device:CPU:0", "attr": {"dilations": {"list": {"i": ["1", "1", "1", "1"]}}, "T": {"type": "DT_FLOAT"}, "data_format": {"s": "TkhXQw=="}, "strides": {"list": {"i": ["1", "1", "1", "1"]}}, "explicit_paddings": {"list": {}}, "use_cudnn_on_gpu": {"b": true}, "num_args": {"i": "1"}, "epsilon": {"f": 0.0}, "padding": {"s": "VkFMSUQ="}, "fused_ops": {"list": {"s": ["Qmlhc0FkZA=="]}}}}, {"name": "StatefulPartitionedCall/Generator/UpSampleConv/ConvBlock/sequential_12/instance_normalization_19/Mean", "op": "Mean", "input": ["StatefulPartitionedCall/Generator/UpSampleConv/ConvBlock/sequential_12/conv2d_22/BiasAdd", "StatefulPartitionedCall/Generator/UpSampleConv/ConvBlock/sequential_12/instance_normalization_19/Mean/reduction_indices"], "attr": {"keep_dims": {"b": true}, "Tidx": {"type": "DT_INT32"}, "T": {"type": "DT_FLOAT"}}}, {"name": "StatefulPartitionedCall/Generator/UpSampleConv/ConvBlock/sequential_12/instance_normalization_19/reduce_std/reduce_variance/Mean", "op": "Mean", "input": ["StatefulPartitionedCall/Generator/UpSampleConv/ConvBlock/sequential_12/conv2d_22/BiasAdd", "StatefulPartitionedCall/Generator/UpSampleConv/ConvBlock/sequential_12/instance_normalization_19/reduce_std/reduce_variance/Mean/reduction_indices"], "attr": {"keep_dims": {"b": true}, "Tidx": {"type": "DT_INT32"}, "T": {"type": "DT_FLOAT"}}}, {"name": "StatefulPartitionedCall/Generator/UpSampleConv/ConvBlock/sequential_12/instance_normalization_19/sub", "op": "Sub", "input": ["StatefulPartitionedCall/Generator/UpSampleConv/ConvBlock/sequential_12/conv2d_22/BiasAdd", "StatefulPartitionedCall/Generator/UpSampleConv/ConvBlock/sequential_12/instance_normalization_19/Mean"], "attr": {"T": {"type": "DT_FLOAT"}}}, {"name": "StatefulPartitionedCall/Generator/UpSampleConv/ConvBlock/sequential_12/instance_normalization_19/reduce_std/reduce_variance/sub", "op": "SquaredDifference", "input": ["StatefulPartitionedCall/Generator/UpSampleConv/ConvBlock/sequential_12/conv2d_22/BiasAdd", "StatefulPartitionedCall/Generator/UpSampleConv/ConvBlock/sequential_12/instance_normalization_19/reduce_std/reduce_variance/Mean"], "attr": {"T": {"type": "DT_FLOAT"}}}, {"name": "StatefulPartitionedCall/Generator/UpSampleConv/ConvBlock/sequential_12/instance_normalization_19/reduce_std/reduce_variance/Mean_1", "op": "Mean", "input": ["StatefulPartitionedCall/Generator/UpSampleConv/ConvBlock/sequential_12/instance_normalization_19/reduce_std/reduce_variance/sub", "StatefulPartitionedCall/Generator/UpSampleConv/ConvBlock/sequential_12/instance_normalization_19/reduce_std/reduce_variance/Mean_1/reduction_indices"], "attr": {"keep_dims": {"b": true}, "Tidx": {"type": "DT_INT32"}, "T": {"type": "DT_FLOAT"}}}, {"name": "StatefulPartitionedCall/Generator/UpSampleConv/ConvBlock/sequential_12/instance_normalization_19/reduce_std/Sqrt", "op": "Sqrt", "input": ["StatefulPartitionedCall/Generator/UpSampleConv/ConvBlock/sequential_12/instance_normalization_19/reduce_std/reduce_variance/Mean_1"], "attr": {"T": {"type": "DT_FLOAT"}}}, {"name": "StatefulPartitionedCall/Generator/UpSampleConv/ConvBlock/sequential_12/instance_normalization_19/add", "op": "AddV2", "input": ["StatefulPartitionedCall/Generator/UpSampleConv/ConvBlock/sequential_12/instance_normalization_19/reduce_std/Sqrt", "StatefulPartitionedCall/Generator/UpSampleConv/ConvBlock/sequential_12/instance_normalization_19/add/y"], "attr": {"T": {"type": "DT_FLOAT"}}}, {"name": "StatefulPartitionedCall/Generator/UpSampleConv/ConvBlock/sequential_12/instance_normalization_19/truediv", "op": "RealDiv", "input": ["StatefulPartitionedCall/Generator/UpSampleConv/ConvBlock/sequential_12/instance_normalization_19/sub", "StatefulPartitionedCall/Generator/UpSampleConv/ConvBlock/sequential_12/instance_normalization_19/add"], "attr": {"T": {"type": "DT_FLOAT"}}}, {"name": "StatefulPartitionedCall/Generator/UpSampleConv/ConvBlock/sequential_12/instance_normalization_19/mul", "op": "Mul", "input": ["StatefulPartitionedCall/Generator/UpSampleConv/ConvBlock/sequential_12/instance_normalization_19/truediv", "StatefulPartitionedCall/Generator/UpSampleConv/ConvBlock/sequential_12/instance_normalization_19/Reshape"], "attr": {"T": {"type": "DT_FLOAT"}}}, {"name": "StatefulPartitionedCall/Generator/UpSampleConv/ConvBlock/sequential_12/instance_normalization_19/add_1", "op": "AddV2", "input": ["StatefulPartitionedCall/Generator/UpSampleConv/ConvBlock/sequential_12/instance_normalization_19/mul", "StatefulPartitionedCall/Generator/UpSampleConv/ConvBlock/sequential_12/instance_normalization_19/Reshape_1"], "attr": {"T": {"type": "DT_FLOAT"}}}, {"name": "StatefulPartitionedCall/Generator/UpSampleConv/ConvBlock/sequential_12/re_lu_11/Relu", "op": "Relu", "input": ["StatefulPartitionedCall/Generator/UpSampleConv/ConvBlock/sequential_12/instance_normalization_19/add_1"], "attr": {"T": {"type": "DT_FLOAT"}}}, {"name": "StatefulPartitionedCall/Generator/UpSampleConv/Shape_1", "op": "Shape", "input": ["StatefulPartitionedCall/Generator/UpSampleConv/ConvBlock/sequential_12/re_lu_11/Relu"], "attr": {"T": {"type": "DT_FLOAT"}, "out_type": {"type": "DT_INT32"}}}, {"name": "StatefulPartitionedCall/Generator/UpSampleConv/strided_slice_1", "op": "StridedSlice", "input": ["StatefulPartitionedCall/Generator/UpSampleConv/Shape_1", "StatefulPartitionedCall/Generator/UpSampleConv/strided_slice_1/stack", "StatefulPartitionedCall/Generator/UpSampleConv/strided_slice_1/stack_1", "StatefulPartitionedCall/Generator/UpSampleConv/strided_slice_1/stack_2"], "attr": {"T": {"type": "DT_INT32"}, "Index": {"type": "DT_INT32"}, "shrink_axis_mask": {"i": "0"}, "ellipsis_mask": {"i": "0"}, "begin_mask": {"i": "0"}, "new_axis_mask": {"i": "0"}, "end_mask": {"i": "0"}}}, {"name": "StatefulPartitionedCall/Generator/UpSampleConv/mul_1", "op": "Mul", "input": ["StatefulPartitionedCall/Generator/UpSampleConv/strided_slice_1", "StatefulPartitionedCall/Generator/UpSampleConv/Const_1"], "attr": {"T": {"type": "DT_INT32"}}}, {"name": "StatefulPartitionedCall/Generator/UpSampleConv/resize_1/ResizeBilinear", "op": "ResizeBilinear", "input": ["StatefulPartitionedCall/Generator/UpSampleConv/ConvBlock/sequential_12/re_lu_11/Relu", "StatefulPartitionedCall/Generator/UpSampleConv/mul_1"], "attr": {"align_corners": {"b": false}, "half_pixel_centers": {"b": true}, "T": {"type": "DT_FLOAT"}}}, {"name": "StatefulPartitionedCall/Generator/UpSampleConv/ConvBlock/sequential_13/zero_padding2d_23/Pad", "op": "Pad", "input": ["StatefulPartitionedCall/Generator/UpSampleConv/resize_1/ResizeBilinear", "StatefulPartitionedCall/Generator/UpSampleConv/ConvBlock/sequential_13/zero_padding2d_23/Pad/paddings"], "attr": {"T": {"type": "DT_FLOAT"}, "Tpaddings": {"type": "DT_INT32"}}}, {"name": "StatefulPartitionedCall/Generator/UpSampleConv/ConvBlock/sequential_13/conv2d_23/BiasAdd", "op": "_FusedConv2D", "input": ["StatefulPartitionedCall/Generator/UpSampleConv/ConvBlock/sequential_13/zero_padding2d_23/Pad", "StatefulPartitionedCall/Generator/UpSampleConv/ConvBlock/sequential_13/conv2d_23/Conv2D/ReadVariableOp", "StatefulPartitionedCall/Generator/UpSampleConv/ConvBlock/sequential_13/conv2d_23/BiasAdd/ReadVariableOp"], "device": "/device:CPU:0", "attr": {"dilations": {"list": {"i": ["1", "1", "1", "1"]}}, "T": {"type": "DT_FLOAT"}, "data_format": {"s": "TkhXQw=="}, "strides": {"list": {"i": ["1", "1", "1", "1"]}}, "explicit_paddings": {"list": {}}, "use_cudnn_on_gpu": {"b": true}, "num_args": {"i": "1"}, "epsilon": {"f": 0.0}, "padding": {"s": "VkFMSUQ="}, "fused_ops": {"list": {"s": ["Qmlhc0FkZA=="]}}}}, {"name": "StatefulPartitionedCall/Generator/UpSampleConv/ConvBlock/sequential_13/zero_padding2d_24/Pad", "op": "Pad", "input": ["StatefulPartitionedCall/Generator/UpSampleConv/ConvBlock/sequential_13/conv2d_23/BiasAdd", "StatefulPartitionedCall/Generator/UpSampleConv/ConvBlock/sequential_13/zero_padding2d_24/Pad/paddings"], "attr": {"T": {"type": "DT_FLOAT"}, "Tpaddings": {"type": "DT_INT32"}}}, {"name": "StatefulPartitionedCall/Generator/UpSampleConv/ConvBlock/sequential_13/conv2d_24/BiasAdd", "op": "_FusedConv2D", "input": ["StatefulPartitionedCall/Generator/UpSampleConv/ConvBlock/sequential_13/zero_padding2d_24/Pad", "StatefulPartitionedCall/Generator/UpSampleConv/ConvBlock/sequential_13/conv2d_24/Conv2D/ReadVariableOp", "StatefulPartitionedCall/Generator/UpSampleConv/ConvBlock/sequential_13/conv2d_24/BiasAdd/ReadVariableOp"], "device": "/device:CPU:0", "attr": {"dilations": {"list": {"i": ["1", "1", "1", "1"]}}, "T": {"type": "DT_FLOAT"}, "data_format": {"s": "TkhXQw=="}, "strides": {"list": {"i": ["1", "1", "1", "1"]}}, "explicit_paddings": {"list": {}}, "use_cudnn_on_gpu": {"b": true}, "num_args": {"i": "1"}, "epsilon": {"f": 0.0}, "padding": {"s": "VkFMSUQ="}, "fused_ops": {"list": {"s": ["Qmlhc0FkZA=="]}}}}, {"name": "StatefulPartitionedCall/Generator/UpSampleConv/ConvBlock/sequential_13/instance_normalization_20/Mean", "op": "Mean", "input": ["StatefulPartitionedCall/Generator/UpSampleConv/ConvBlock/sequential_13/conv2d_24/BiasAdd", "StatefulPartitionedCall/Generator/UpSampleConv/ConvBlock/sequential_13/instance_normalization_20/Mean/reduction_indices"], "attr": {"keep_dims": {"b": true}, "Tidx": {"type": "DT_INT32"}, "T": {"type": "DT_FLOAT"}}}, {"name": "StatefulPartitionedCall/Generator/UpSampleConv/ConvBlock/sequential_13/instance_normalization_20/reduce_std/reduce_variance/Mean", "op": "Mean", "input": ["StatefulPartitionedCall/Generator/UpSampleConv/ConvBlock/sequential_13/conv2d_24/BiasAdd", "StatefulPartitionedCall/Generator/UpSampleConv/ConvBlock/sequential_13/instance_normalization_20/reduce_std/reduce_variance/Mean/reduction_indices"], "attr": {"keep_dims": {"b": true}, "Tidx": {"type": "DT_INT32"}, "T": {"type": "DT_FLOAT"}}}, {"name": "StatefulPartitionedCall/Generator/UpSampleConv/ConvBlock/sequential_13/instance_normalization_20/sub", "op": "Sub", "input": ["StatefulPartitionedCall/Generator/UpSampleConv/ConvBlock/sequential_13/conv2d_24/BiasAdd", "StatefulPartitionedCall/Generator/UpSampleConv/ConvBlock/sequential_13/instance_normalization_20/Mean"], "attr": {"T": {"type": "DT_FLOAT"}}}, {"name": "StatefulPartitionedCall/Generator/UpSampleConv/ConvBlock/sequential_13/instance_normalization_20/reduce_std/reduce_variance/sub", "op": "SquaredDifference", "input": ["StatefulPartitionedCall/Generator/UpSampleConv/ConvBlock/sequential_13/conv2d_24/BiasAdd", "StatefulPartitionedCall/Generator/UpSampleConv/ConvBlock/sequential_13/instance_normalization_20/reduce_std/reduce_variance/Mean"], "attr": {"T": {"type": "DT_FLOAT"}}}, {"name": "StatefulPartitionedCall/Generator/UpSampleConv/ConvBlock/sequential_13/instance_normalization_20/reduce_std/reduce_variance/Mean_1", "op": "Mean", "input": ["StatefulPartitionedCall/Generator/UpSampleConv/ConvBlock/sequential_13/instance_normalization_20/reduce_std/reduce_variance/sub", "StatefulPartitionedCall/Generator/UpSampleConv/ConvBlock/sequential_13/instance_normalization_20/reduce_std/reduce_variance/Mean_1/reduction_indices"], "attr": {"keep_dims": {"b": true}, "Tidx": {"type": "DT_INT32"}, "T": {"type": "DT_FLOAT"}}}, {"name": "StatefulPartitionedCall/Generator/UpSampleConv/ConvBlock/sequential_13/instance_normalization_20/reduce_std/Sqrt", "op": "Sqrt", "input": ["StatefulPartitionedCall/Generator/UpSampleConv/ConvBlock/sequential_13/instance_normalization_20/reduce_std/reduce_variance/Mean_1"], "attr": {"T": {"type": "DT_FLOAT"}}}, {"name": "StatefulPartitionedCall/Generator/UpSampleConv/ConvBlock/sequential_13/instance_normalization_20/add", "op": "AddV2", "input": ["StatefulPartitionedCall/Generator/UpSampleConv/ConvBlock/sequential_13/instance_normalization_20/reduce_std/Sqrt", "StatefulPartitionedCall/Generator/UpSampleConv/ConvBlock/sequential_13/instance_normalization_20/add/y"], "attr": {"T": {"type": "DT_FLOAT"}}}, {"name": "StatefulPartitionedCall/Generator/UpSampleConv/ConvBlock/sequential_13/instance_normalization_20/truediv", "op": "RealDiv", "input": ["StatefulPartitionedCall/Generator/UpSampleConv/ConvBlock/sequential_13/instance_normalization_20/sub", "StatefulPartitionedCall/Generator/UpSampleConv/ConvBlock/sequential_13/instance_normalization_20/add"], "attr": {"T": {"type": "DT_FLOAT"}}}, {"name": "StatefulPartitionedCall/Generator/UpSampleConv/ConvBlock/sequential_13/instance_normalization_20/mul", "op": "Mul", "input": ["StatefulPartitionedCall/Generator/UpSampleConv/ConvBlock/sequential_13/instance_normalization_20/truediv", "StatefulPartitionedCall/Generator/UpSampleConv/ConvBlock/sequential_13/instance_normalization_20/Reshape"], "attr": {"T": {"type": "DT_FLOAT"}}}, {"name": "StatefulPartitionedCall/Generator/UpSampleConv/ConvBlock/sequential_13/instance_normalization_20/add_1", "op": "AddV2", "input": ["StatefulPartitionedCall/Generator/UpSampleConv/ConvBlock/sequential_13/instance_normalization_20/mul", "StatefulPartitionedCall/Generator/UpSampleConv/ConvBlock/sequential_13/instance_normalization_20/Reshape_1"], "attr": {"T": {"type": "DT_FLOAT"}}}, {"name": "StatefulPartitionedCall/Generator/UpSampleConv/ConvBlock/sequential_13/re_lu_12/Relu", "op": "Relu", "input": ["StatefulPartitionedCall/Generator/UpSampleConv/ConvBlock/sequential_13/instance_normalization_20/add_1"], "attr": {"T": {"type": "DT_FLOAT"}}}, {"name": "StatefulPartitionedCall/Generator/sequential_14/zero_padding2d_25/Pad", "op": "Pad", "input": ["StatefulPartitionedCall/Generator/UpSampleConv/ConvBlock/sequential_13/re_lu_12/Relu", "StatefulPartitionedCall/Generator/sequential_14/zero_padding2d_25/Pad/paddings"], "attr": {"T": {"type": "DT_FLOAT"}, "Tpaddings": {"type": "DT_INT32"}}}, {"name": "StatefulPartitionedCall/Generator/sequential_14/conv2d_25/BiasAdd", "op": "_FusedConv2D", "input": ["StatefulPartitionedCall/Generator/sequential_14/zero_padding2d_25/Pad", "StatefulPartitionedCall/Generator/sequential_14/conv2d_25/Conv2D/ReadVariableOp", "StatefulPartitionedCall/Generator/sequential_14/conv2d_25/BiasAdd/ReadVariableOp"], "device": "/device:CPU:0", "attr": {"dilations": {"list": {"i": ["1", "1", "1", "1"]}}, "T": {"type": "DT_FLOAT"}, "data_format": {"s": "TkhXQw=="}, "strides": {"list": {"i": ["1", "1", "1", "1"]}}, "explicit_paddings": {"list": {}}, "use_cudnn_on_gpu": {"b": true}, "num_args": {"i": "1"}, "epsilon": {"f": 0.0}, "padding": {"s": "VkFMSUQ="}, "fused_ops": {"list": {"s": ["Qmlhc0FkZA=="]}}}}, {"name": "StatefulPartitionedCall/Generator/activation/Tanh", "op": "Tanh", "input": ["StatefulPartitionedCall/Generator/sequential_14/conv2d_25/BiasAdd"], "attr": {"T": {"type": "DT_FLOAT"}}}, {"name": "Identity", "op": "Identity", "input": ["StatefulPartitionedCall/Generator/activation/Tanh"], "attr": {"T": {"type": "DT_FLOAT"}}}], "library": {}, "versions": {"producer": 561}}, "weightsManifest": [{"paths": ["group1-shard1of11.bin", "group1-shard2of11.bin", "group1-shard3of11.bin", "group1-shard4of11.bin", "group1-shard5of11.bin", "group1-shard6of11.bin", "group1-shard7of11.bin", "group1-shard8of11.bin", "group1-shard9of11.bin", "group1-shard10of11.bin", "group1-shard11of11.bin"], "weights": [{"name": "StatefulPartitionedCall/Generator/UpSampleConv/ConvBlock/sequential_13/instance_normalization_20/Mean/reduction_indices", "shape": [3], "dtype": "int32"}, {"name": "StatefulPartitionedCall/Generator/UpSampleConv/ConvBlock/sequential_12/instance_normalization_19/Mean/reduction_indices", "shape": [3], "dtype": "int32"}, {"name": "StatefulPartitionedCall/Generator/sequential_11/ResBlock_7/sequential_10/instance_normalization_18/Mean/reduction_indices", "shape": [3], "dtype": "int32"}, {"name": "StatefulPartitionedCall/Generator/sequential_11/ResBlock_7/sequential_10/instance_normalization_17/Mean/reduction_indices", "shape": [3], "dtype": "int32"}, {"name": "StatefulPartitionedCall/Generator/sequential_11/ResBlock_7/sequential_10/zero_padding2d_19/Pad/paddings", "shape": [4, 2], "dtype": "int32"}, {"name": "StatefulPartitionedCall/Generator/sequential_11/ResBlock_7/sequential_10/conv2d_19/Conv2D/ReadVariableOp", "shape": [3, 3, 256, 256], "dtype": "float32"}, {"name": "StatefulPartitionedCall/Generator/sequential_11/ResBlock_7/sequential_10/conv2d_19/BiasAdd/ReadVariableOp", "shape": [256], "dtype": "float32"}, {"name": "StatefulPartitionedCall/Generator/sequential_11/ResBlock_7/sequential_10/instance_normalization_17/reduce_std/reduce_variance/Mean/reduction_indices", "shape": [3], "dtype": "int32"}, {"name": "StatefulPartitionedCall/Generator/sequential_11/ResBlock_7/sequential_10/instance_normalization_17/reduce_std/reduce_variance/Mean_1/reduction_indices", "shape": [3], "dtype": "int32"}, {"name": "StatefulPartitionedCall/Generator/sequential_11/ResBlock_7/sequential_10/instance_normalization_17/add/y", "shape": [], "dtype": "float32"}, {"name": "StatefulPartitionedCall/Generator/sequential_11/ResBlock_7/sequential_10/instance_normalization_17/Reshape", "shape": [1, 1, 1, 1], "dtype": "float32"}, {"name": "StatefulPartitionedCall/Generator/sequential_11/ResBlock_7/sequential_10/instance_normalization_17/Reshape_1", "shape": [1, 1, 1, 1], "dtype": "float32"}, {"name": "StatefulPartitionedCall/Generator/sequential_11/ResBlock_7/sequential_10/zero_padding2d_20/Pad/paddings", "shape": [4, 2], "dtype": "int32"}, {"name": "StatefulPartitionedCall/Generator/sequential_11/ResBlock_7/sequential_10/conv2d_20/Conv2D/ReadVariableOp", "shape": [3, 3, 256, 256], "dtype": "float32"}, {"name": "StatefulPartitionedCall/Generator/sequential_11/ResBlock_7/sequential_10/conv2d_20/BiasAdd/ReadVariableOp", "shape": [256], "dtype": "float32"}, {"name": "StatefulPartitionedCall/Generator/sequential_11/ResBlock_7/sequential_10/instance_normalization_18/reduce_std/reduce_variance/Mean/reduction_indices", "shape": [3], "dtype": "int32"}, {"name": "StatefulPartitionedCall/Generator/sequential_11/ResBlock_7/sequential_10/instance_normalization_18/reduce_std/reduce_variance/Mean_1/reduction_indices", "shape": [3], "dtype": "int32"}, {"name": "StatefulPartitionedCall/Generator/sequential_11/ResBlock_7/sequential_10/instance_normalization_18/add/y", "shape": [], "dtype": "float32"}, {"name": "StatefulPartitionedCall/Generator/sequential_11/ResBlock_7/sequential_10/instance_normalization_18/Reshape", "shape": [1, 1, 1, 1], "dtype": "float32"}, {"name": "StatefulPartitionedCall/Generator/sequential_11/ResBlock_7/sequential_10/instance_normalization_18/Reshape_1", "shape": [1, 1, 1, 1], "dtype": "float32"}, {"name": "StatefulPartitionedCall/Generator/sequential_11/ResBlock_6/sequential_9/instance_normalization_16/Mean/reduction_indices", "shape": [3], "dtype": "int32"}, {"name": "StatefulPartitionedCall/Generator/sequential_11/ResBlock_6/sequential_9/instance_normalization_15/Mean/reduction_indices", "shape": [3], "dtype": "int32"}, {"name": "StatefulPartitionedCall/Generator/sequential_11/ResBlock_6/sequential_9/zero_padding2d_17/Pad/paddings", "shape": [4, 2], "dtype": "int32"}, {"name": "StatefulPartitionedCall/Generator/sequential_11/ResBlock_6/sequential_9/conv2d_17/Conv2D/ReadVariableOp", "shape": [3, 3, 256, 256], "dtype": "float32"}, {"name": "StatefulPartitionedCall/Generator/sequential_11/ResBlock_6/sequential_9/conv2d_17/BiasAdd/ReadVariableOp", "shape": [256], "dtype": "float32"}, {"name": "StatefulPartitionedCall/Generator/sequential_11/ResBlock_6/sequential_9/instance_normalization_15/reduce_std/reduce_variance/Mean/reduction_indices", "shape": [3], "dtype": "int32"}, {"name": "StatefulPartitionedCall/Generator/sequential_11/ResBlock_6/sequential_9/instance_normalization_15/reduce_std/reduce_variance/Mean_1/reduction_indices", "shape": [3], "dtype": "int32"}, {"name": "StatefulPartitionedCall/Generator/sequential_11/ResBlock_6/sequential_9/instance_normalization_15/add/y", "shape": [], "dtype": "float32"}, {"name": "StatefulPartitionedCall/Generator/sequential_11/ResBlock_6/sequential_9/instance_normalization_15/Reshape", "shape": [1, 1, 1, 1], "dtype": "float32"}, {"name": "StatefulPartitionedCall/Generator/sequential_11/ResBlock_6/sequential_9/instance_normalization_15/Reshape_1", "shape": [1, 1, 1, 1], "dtype": "float32"}, {"name": "StatefulPartitionedCall/Generator/sequential_11/ResBlock_6/sequential_9/zero_padding2d_18/Pad/paddings", "shape": [4, 2], "dtype": "int32"}, {"name": "StatefulPartitionedCall/Generator/sequential_11/ResBlock_6/sequential_9/conv2d_18/Conv2D/ReadVariableOp", "shape": [3, 3, 256, 256], "dtype": "float32"}, {"name": "StatefulPartitionedCall/Generator/sequential_11/ResBlock_6/sequential_9/conv2d_18/BiasAdd/ReadVariableOp", "shape": [256], "dtype": "float32"}, {"name": "StatefulPartitionedCall/Generator/sequential_11/ResBlock_6/sequential_9/instance_normalization_16/reduce_std/reduce_variance/Mean/reduction_indices", "shape": [3], "dtype": "int32"}, {"name": "StatefulPartitionedCall/Generator/sequential_11/ResBlock_6/sequential_9/instance_normalization_16/reduce_std/reduce_variance/Mean_1/reduction_indices", "shape": [3], "dtype": "int32"}, {"name": "StatefulPartitionedCall/Generator/sequential_11/ResBlock_6/sequential_9/instance_normalization_16/add/y", "shape": [], "dtype": "float32"}, {"name": "StatefulPartitionedCall/Generator/sequential_11/ResBlock_6/sequential_9/instance_normalization_16/Reshape", "shape": [1, 1, 1, 1], "dtype": "float32"}, {"name": "StatefulPartitionedCall/Generator/sequential_11/ResBlock_6/sequential_9/instance_normalization_16/Reshape_1", "shape": [1, 1, 1, 1], "dtype": "float32"}, {"name": "StatefulPartitionedCall/Generator/sequential_11/ResBlock_5/sequential_8/instance_normalization_14/Mean/reduction_indices", "shape": [3], "dtype": "int32"}, {"name": "StatefulPartitionedCall/Generator/sequential_11/ResBlock_5/sequential_8/instance_normalization_13/Mean/reduction_indices", "shape": [3], "dtype": "int32"}, {"name": "StatefulPartitionedCall/Generator/sequential_11/ResBlock_5/sequential_8/zero_padding2d_15/Pad/paddings", "shape": [4, 2], "dtype": "int32"}, {"name": "StatefulPartitionedCall/Generator/sequential_11/ResBlock_5/sequential_8/conv2d_15/Conv2D/ReadVariableOp", "shape": [3, 3, 256, 256], "dtype": "float32"}, {"name": "StatefulPartitionedCall/Generator/sequential_11/ResBlock_5/sequential_8/conv2d_15/BiasAdd/ReadVariableOp", "shape": [256], "dtype": "float32"}, {"name": "StatefulPartitionedCall/Generator/sequential_11/ResBlock_5/sequential_8/instance_normalization_13/reduce_std/reduce_variance/Mean/reduction_indices", "shape": [3], "dtype": "int32"}, {"name": "StatefulPartitionedCall/Generator/sequential_11/ResBlock_5/sequential_8/instance_normalization_13/reduce_std/reduce_variance/Mean_1/reduction_indices", "shape": [3], "dtype": "int32"}, {"name": "StatefulPartitionedCall/Generator/sequential_11/ResBlock_5/sequential_8/instance_normalization_13/add/y", "shape": [], "dtype": "float32"}, {"name": "StatefulPartitionedCall/Generator/sequential_11/ResBlock_5/sequential_8/instance_normalization_13/Reshape", "shape": [1, 1, 1, 1], "dtype": "float32"}, {"name": "StatefulPartitionedCall/Generator/sequential_11/ResBlock_5/sequential_8/instance_normalization_13/Reshape_1", "shape": [1, 1, 1, 1], "dtype": "float32"}, {"name": "StatefulPartitionedCall/Generator/sequential_11/ResBlock_5/sequential_8/zero_padding2d_16/Pad/paddings", "shape": [4, 2], "dtype": "int32"}, {"name": "StatefulPartitionedCall/Generator/sequential_11/ResBlock_5/sequential_8/conv2d_16/Conv2D/ReadVariableOp", "shape": [3, 3, 256, 256], "dtype": "float32"}, {"name": "StatefulPartitionedCall/Generator/sequential_11/ResBlock_5/sequential_8/conv2d_16/BiasAdd/ReadVariableOp", "shape": [256], "dtype": "float32"}, {"name": "StatefulPartitionedCall/Generator/sequential_11/ResBlock_5/sequential_8/instance_normalization_14/reduce_std/reduce_variance/Mean/reduction_indices", "shape": [3], "dtype": "int32"}, {"name": "StatefulPartitionedCall/Generator/sequential_11/ResBlock_5/sequential_8/instance_normalization_14/reduce_std/reduce_variance/Mean_1/reduction_indices", "shape": [3], "dtype": "int32"}, {"name": "StatefulPartitionedCall/Generator/sequential_11/ResBlock_5/sequential_8/instance_normalization_14/add/y", "shape": [], "dtype": "float32"}, {"name": "StatefulPartitionedCall/Generator/sequential_11/ResBlock_5/sequential_8/instance_normalization_14/Reshape", "shape": [1, 1, 1, 1], "dtype": "float32"}, {"name": "StatefulPartitionedCall/Generator/sequential_11/ResBlock_5/sequential_8/instance_normalization_14/Reshape_1", "shape": [1, 1, 1, 1], "dtype": "float32"}, {"name": "StatefulPartitionedCall/Generator/sequential_11/ResBlock_4/sequential_7/instance_normalization_12/Mean/reduction_indices", "shape": [3], "dtype": "int32"}, {"name": "StatefulPartitionedCall/Generator/sequential_11/ResBlock_4/sequential_7/instance_normalization_11/Mean/reduction_indices", "shape": [3], "dtype": "int32"}, {"name": "StatefulPartitionedCall/Generator/sequential_11/ResBlock_4/sequential_7/zero_padding2d_13/Pad/paddings", "shape": [4, 2], "dtype": "int32"}, {"name": "StatefulPartitionedCall/Generator/sequential_11/ResBlock_4/sequential_7/conv2d_13/Conv2D/ReadVariableOp", "shape": [3, 3, 256, 256], "dtype": "float32"}, {"name": "StatefulPartitionedCall/Generator/sequential_11/ResBlock_4/sequential_7/conv2d_13/BiasAdd/ReadVariableOp", "shape": [256], "dtype": "float32"}, {"name": "StatefulPartitionedCall/Generator/sequential_11/ResBlock_4/sequential_7/instance_normalization_11/reduce_std/reduce_variance/Mean/reduction_indices", "shape": [3], "dtype": "int32"}, {"name": "StatefulPartitionedCall/Generator/sequential_11/ResBlock_4/sequential_7/instance_normalization_11/reduce_std/reduce_variance/Mean_1/reduction_indices", "shape": [3], "dtype": "int32"}, {"name": "StatefulPartitionedCall/Generator/sequential_11/ResBlock_4/sequential_7/instance_normalization_11/add/y", "shape": [], "dtype": "float32"}, {"name": "StatefulPartitionedCall/Generator/sequential_11/ResBlock_4/sequential_7/instance_normalization_11/Reshape", "shape": [1, 1, 1, 1], "dtype": "float32"}, {"name": "StatefulPartitionedCall/Generator/sequential_11/ResBlock_4/sequential_7/instance_normalization_11/Reshape_1", "shape": [1, 1, 1, 1], "dtype": "float32"}, {"name": "StatefulPartitionedCall/Generator/sequential_11/ResBlock_4/sequential_7/zero_padding2d_14/Pad/paddings", "shape": [4, 2], "dtype": "int32"}, {"name": "StatefulPartitionedCall/Generator/sequential_11/ResBlock_4/sequential_7/conv2d_14/Conv2D/ReadVariableOp", "shape": [3, 3, 256, 256], "dtype": "float32"}, {"name": "StatefulPartitionedCall/Generator/sequential_11/ResBlock_4/sequential_7/conv2d_14/BiasAdd/ReadVariableOp", "shape": [256], "dtype": "float32"}, {"name": "StatefulPartitionedCall/Generator/sequential_11/ResBlock_4/sequential_7/instance_normalization_12/reduce_std/reduce_variance/Mean/reduction_indices", "shape": [3], "dtype": "int32"}, {"name": "StatefulPartitionedCall/Generator/sequential_11/ResBlock_4/sequential_7/instance_normalization_12/reduce_std/reduce_variance/Mean_1/reduction_indices", "shape": [3], "dtype": "int32"}, {"name": "StatefulPartitionedCall/Generator/sequential_11/ResBlock_4/sequential_7/instance_normalization_12/add/y", "shape": [], "dtype": "float32"}, {"name": "StatefulPartitionedCall/Generator/sequential_11/ResBlock_4/sequential_7/instance_normalization_12/Reshape", "shape": [1, 1, 1, 1], "dtype": "float32"}, {"name": "StatefulPartitionedCall/Generator/sequential_11/ResBlock_4/sequential_7/instance_normalization_12/Reshape_1", "shape": [1, 1, 1, 1], "dtype": "float32"}, {"name": "StatefulPartitionedCall/Generator/sequential_11/ResBlock_3/sequential_6/instance_normalization_10/Mean/reduction_indices", "shape": [3], "dtype": "int32"}, {"name": "StatefulPartitionedCall/Generator/sequential_11/ResBlock_3/sequential_6/instance_normalization_9/Mean/reduction_indices", "shape": [3], "dtype": "int32"}, {"name": "StatefulPartitionedCall/Generator/sequential_11/ResBlock_3/sequential_6/zero_padding2d_11/Pad/paddings", "shape": [4, 2], "dtype": "int32"}, {"name": "StatefulPartitionedCall/Generator/sequential_11/ResBlock_3/sequential_6/conv2d_11/Conv2D/ReadVariableOp", "shape": [3, 3, 256, 256], "dtype": "float32"}, {"name": "StatefulPartitionedCall/Generator/sequential_11/ResBlock_3/sequential_6/conv2d_11/BiasAdd/ReadVariableOp", "shape": [256], "dtype": "float32"}, {"name": "StatefulPartitionedCall/Generator/sequential_11/ResBlock_3/sequential_6/instance_normalization_9/reduce_std/reduce_variance/Mean/reduction_indices", "shape": [3], "dtype": "int32"}, {"name": "StatefulPartitionedCall/Generator/sequential_11/ResBlock_3/sequential_6/instance_normalization_9/reduce_std/reduce_variance/Mean_1/reduction_indices", "shape": [3], "dtype": "int32"}, {"name": "StatefulPartitionedCall/Generator/sequential_11/ResBlock_3/sequential_6/instance_normalization_9/add/y", "shape": [], "dtype": "float32"}, {"name": "StatefulPartitionedCall/Generator/sequential_11/ResBlock_3/sequential_6/instance_normalization_9/Reshape", "shape": [1, 1, 1, 1], "dtype": "float32"}, {"name": "StatefulPartitionedCall/Generator/sequential_11/ResBlock_3/sequential_6/instance_normalization_9/Reshape_1", "shape": [1, 1, 1, 1], "dtype": "float32"}, {"name": "StatefulPartitionedCall/Generator/sequential_11/ResBlock_3/sequential_6/zero_padding2d_12/Pad/paddings", "shape": [4, 2], "dtype": "int32"}, {"name": "StatefulPartitionedCall/Generator/sequential_11/ResBlock_3/sequential_6/conv2d_12/Conv2D/ReadVariableOp", "shape": [3, 3, 256, 256], "dtype": "float32"}, {"name": "StatefulPartitionedCall/Generator/sequential_11/ResBlock_3/sequential_6/conv2d_12/BiasAdd/ReadVariableOp", "shape": [256], "dtype": "float32"}, {"name": "StatefulPartitionedCall/Generator/sequential_11/ResBlock_3/sequential_6/instance_normalization_10/reduce_std/reduce_variance/Mean/reduction_indices", "shape": [3], "dtype": "int32"}, {"name": "StatefulPartitionedCall/Generator/sequential_11/ResBlock_3/sequential_6/instance_normalization_10/reduce_std/reduce_variance/Mean_1/reduction_indices", "shape": [3], "dtype": "int32"}, {"name": "StatefulPartitionedCall/Generator/sequential_11/ResBlock_3/sequential_6/instance_normalization_10/add/y", "shape": [], "dtype": "float32"}, {"name": "StatefulPartitionedCall/Generator/sequential_11/ResBlock_3/sequential_6/instance_normalization_10/Reshape", "shape": [1, 1, 1, 1], "dtype": "float32"}, {"name": "StatefulPartitionedCall/Generator/sequential_11/ResBlock_3/sequential_6/instance_normalization_10/Reshape_1", "shape": [1, 1, 1, 1], "dtype": "float32"}, {"name": "StatefulPartitionedCall/Generator/sequential_11/ResBlock_2/sequential_5/instance_normalization_8/Mean/reduction_indices", "shape": [3], "dtype": "int32"}, {"name": "StatefulPartitionedCall/Generator/sequential_11/ResBlock_2/sequential_5/instance_normalization_7/Mean/reduction_indices", "shape": [3], "dtype": "int32"}, {"name": "StatefulPartitionedCall/Generator/sequential_11/ResBlock_2/sequential_5/zero_padding2d_9/Pad/paddings", "shape": [4, 2], "dtype": "int32"}, {"name": "StatefulPartitionedCall/Generator/sequential_11/ResBlock_2/sequential_5/conv2d_9/Conv2D/ReadVariableOp", "shape": [3, 3, 256, 256], "dtype": "float32"}, {"name": "StatefulPartitionedCall/Generator/sequential_11/ResBlock_2/sequential_5/conv2d_9/BiasAdd/ReadVariableOp", "shape": [256], "dtype": "float32"}, {"name": "StatefulPartitionedCall/Generator/sequential_11/ResBlock_2/sequential_5/instance_normalization_7/reduce_std/reduce_variance/Mean/reduction_indices", "shape": [3], "dtype": "int32"}, {"name": "StatefulPartitionedCall/Generator/sequential_11/ResBlock_2/sequential_5/instance_normalization_7/reduce_std/reduce_variance/Mean_1/reduction_indices", "shape": [3], "dtype": "int32"}, {"name": "StatefulPartitionedCall/Generator/sequential_11/ResBlock_2/sequential_5/instance_normalization_7/add/y", "shape": [], "dtype": "float32"}, {"name": "StatefulPartitionedCall/Generator/sequential_11/ResBlock_2/sequential_5/instance_normalization_7/Reshape", "shape": [1, 1, 1, 1], "dtype": "float32"}, {"name": "StatefulPartitionedCall/Generator/sequential_11/ResBlock_2/sequential_5/instance_normalization_7/Reshape_1", "shape": [1, 1, 1, 1], "dtype": "float32"}, {"name": "StatefulPartitionedCall/Generator/sequential_11/ResBlock_2/sequential_5/zero_padding2d_10/Pad/paddings", "shape": [4, 2], "dtype": "int32"}, {"name": "StatefulPartitionedCall/Generator/sequential_11/ResBlock_2/sequential_5/conv2d_10/Conv2D/ReadVariableOp", "shape": [3, 3, 256, 256], "dtype": "float32"}, {"name": "StatefulPartitionedCall/Generator/sequential_11/ResBlock_2/sequential_5/conv2d_10/BiasAdd/ReadVariableOp", "shape": [256], "dtype": "float32"}, {"name": "StatefulPartitionedCall/Generator/sequential_11/ResBlock_2/sequential_5/instance_normalization_8/reduce_std/reduce_variance/Mean/reduction_indices", "shape": [3], "dtype": "int32"}, {"name": "StatefulPartitionedCall/Generator/sequential_11/ResBlock_2/sequential_5/instance_normalization_8/reduce_std/reduce_variance/Mean_1/reduction_indices", "shape": [3], "dtype": "int32"}, {"name": "StatefulPartitionedCall/Generator/sequential_11/ResBlock_2/sequential_5/instance_normalization_8/add/y", "shape": [], "dtype": "float32"}, {"name": "StatefulPartitionedCall/Generator/sequential_11/ResBlock_2/sequential_5/instance_normalization_8/Reshape", "shape": [1, 1, 1, 1], "dtype": "float32"}, {"name": "StatefulPartitionedCall/Generator/sequential_11/ResBlock_2/sequential_5/instance_normalization_8/Reshape_1", "shape": [1, 1, 1, 1], "dtype": "float32"}, {"name": "StatefulPartitionedCall/Generator/sequential_11/ResBlock_1/sequential_4/instance_normalization_6/Mean/reduction_indices", "shape": [3], "dtype": "int32"}, {"name": "StatefulPartitionedCall/Generator/sequential_11/ResBlock_1/sequential_4/instance_normalization_5/Mean/reduction_indices", "shape": [3], "dtype": "int32"}, {"name": "StatefulPartitionedCall/Generator/sequential_11/ResBlock_1/sequential_4/zero_padding2d_7/Pad/paddings", "shape": [4, 2], "dtype": "int32"}, {"name": "StatefulPartitionedCall/Generator/sequential_11/ResBlock_1/sequential_4/conv2d_7/Conv2D/ReadVariableOp", "shape": [3, 3, 256, 256], "dtype": "float32"}, {"name": "StatefulPartitionedCall/Generator/sequential_11/ResBlock_1/sequential_4/conv2d_7/BiasAdd/ReadVariableOp", "shape": [256], "dtype": "float32"}, {"name": "StatefulPartitionedCall/Generator/sequential_11/ResBlock_1/sequential_4/instance_normalization_5/reduce_std/reduce_variance/Mean/reduction_indices", "shape": [3], "dtype": "int32"}, {"name": "StatefulPartitionedCall/Generator/sequential_11/ResBlock_1/sequential_4/instance_normalization_5/reduce_std/reduce_variance/Mean_1/reduction_indices", "shape": [3], "dtype": "int32"}, {"name": "StatefulPartitionedCall/Generator/sequential_11/ResBlock_1/sequential_4/instance_normalization_5/add/y", "shape": [], "dtype": "float32"}, {"name": "StatefulPartitionedCall/Generator/sequential_11/ResBlock_1/sequential_4/instance_normalization_5/Reshape", "shape": [1, 1, 1, 1], "dtype": "float32"}, {"name": "StatefulPartitionedCall/Generator/sequential_11/ResBlock_1/sequential_4/instance_normalization_5/Reshape_1", "shape": [1, 1, 1, 1], "dtype": "float32"}, {"name": "StatefulPartitionedCall/Generator/sequential_11/ResBlock_1/sequential_4/zero_padding2d_8/Pad/paddings", "shape": [4, 2], "dtype": "int32"}, {"name": "StatefulPartitionedCall/Generator/sequential_11/ResBlock_1/sequential_4/conv2d_8/Conv2D/ReadVariableOp", "shape": [3, 3, 256, 256], "dtype": "float32"}, {"name": "StatefulPartitionedCall/Generator/sequential_11/ResBlock_1/sequential_4/conv2d_8/BiasAdd/ReadVariableOp", "shape": [256], "dtype": "float32"}, {"name": "StatefulPartitionedCall/Generator/sequential_11/ResBlock_1/sequential_4/instance_normalization_6/reduce_std/reduce_variance/Mean/reduction_indices", "shape": [3], "dtype": "int32"}, {"name": "StatefulPartitionedCall/Generator/sequential_11/ResBlock_1/sequential_4/instance_normalization_6/reduce_std/reduce_variance/Mean_1/reduction_indices", "shape": [3], "dtype": "int32"}, {"name": "StatefulPartitionedCall/Generator/sequential_11/ResBlock_1/sequential_4/instance_normalization_6/add/y", "shape": [], "dtype": "float32"}, {"name": "StatefulPartitionedCall/Generator/sequential_11/ResBlock_1/sequential_4/instance_normalization_6/Reshape", "shape": [1, 1, 1, 1], "dtype": "float32"}, {"name": "StatefulPartitionedCall/Generator/sequential_11/ResBlock_1/sequential_4/instance_normalization_6/Reshape_1", "shape": [1, 1, 1, 1], "dtype": "float32"}, {"name": "StatefulPartitionedCall/Generator/sequential_11/ResBlock_0/sequential_3/instance_normalization_4/Mean/reduction_indices", "shape": [3], "dtype": "int32"}, {"name": "StatefulPartitionedCall/Generator/sequential_11/ResBlock_0/sequential_3/instance_normalization_3/Mean/reduction_indices", "shape": [3], "dtype": "int32"}, {"name": "StatefulPartitionedCall/Generator/sequential_11/ResBlock_0/sequential_3/zero_padding2d_5/Pad/paddings", "shape": [4, 2], "dtype": "int32"}, {"name": "StatefulPartitionedCall/Generator/sequential_11/ResBlock_0/sequential_3/conv2d_5/Conv2D/ReadVariableOp", "shape": [3, 3, 256, 256], "dtype": "float32"}, {"name": "StatefulPartitionedCall/Generator/sequential_11/ResBlock_0/sequential_3/conv2d_5/BiasAdd/ReadVariableOp", "shape": [256], "dtype": "float32"}, {"name": "StatefulPartitionedCall/Generator/sequential_11/ResBlock_0/sequential_3/instance_normalization_3/reduce_std/reduce_variance/Mean/reduction_indices", "shape": [3], "dtype": "int32"}, {"name": "StatefulPartitionedCall/Generator/sequential_11/ResBlock_0/sequential_3/instance_normalization_3/reduce_std/reduce_variance/Mean_1/reduction_indices", "shape": [3], "dtype": "int32"}, {"name": "StatefulPartitionedCall/Generator/sequential_11/ResBlock_0/sequential_3/instance_normalization_3/add/y", "shape": [], "dtype": "float32"}, {"name": "StatefulPartitionedCall/Generator/sequential_11/ResBlock_0/sequential_3/instance_normalization_3/Reshape", "shape": [1, 1, 1, 1], "dtype": "float32"}, {"name": "StatefulPartitionedCall/Generator/sequential_11/ResBlock_0/sequential_3/instance_normalization_3/Reshape_1", "shape": [1, 1, 1, 1], "dtype": "float32"}, {"name": "StatefulPartitionedCall/Generator/sequential_11/ResBlock_0/sequential_3/zero_padding2d_6/Pad/paddings", "shape": [4, 2], "dtype": "int32"}, {"name": "StatefulPartitionedCall/Generator/sequential_11/ResBlock_0/sequential_3/conv2d_6/Conv2D/ReadVariableOp", "shape": [3, 3, 256, 256], "dtype": "float32"}, {"name": "StatefulPartitionedCall/Generator/sequential_11/ResBlock_0/sequential_3/conv2d_6/BiasAdd/ReadVariableOp", "shape": [256], "dtype": "float32"}, {"name": "StatefulPartitionedCall/Generator/sequential_11/ResBlock_0/sequential_3/instance_normalization_4/reduce_std/reduce_variance/Mean/reduction_indices", "shape": [3], "dtype": "int32"}, {"name": "StatefulPartitionedCall/Generator/sequential_11/ResBlock_0/sequential_3/instance_normalization_4/reduce_std/reduce_variance/Mean_1/reduction_indices", "shape": [3], "dtype": "int32"}, {"name": "StatefulPartitionedCall/Generator/sequential_11/ResBlock_0/sequential_3/instance_normalization_4/add/y", "shape": [], "dtype": "float32"}, {"name": "StatefulPartitionedCall/Generator/sequential_11/ResBlock_0/sequential_3/instance_normalization_4/Reshape", "shape": [1, 1, 1, 1], "dtype": "float32"}, {"name": "StatefulPartitionedCall/Generator/sequential_11/ResBlock_0/sequential_3/instance_normalization_4/Reshape_1", "shape": [1, 1, 1, 1], "dtype": "float32"}, {"name": "StatefulPartitionedCall/Generator/ConvBlock/sequential_2/instance_normalization_2/Mean/reduction_indices", "shape": [3], "dtype": "int32"}, {"name": "StatefulPartitionedCall/Generator/ConvBlock/sequential_1/instance_normalization_1/Mean/reduction_indices", "shape": [3], "dtype": "int32"}, {"name": "StatefulPartitionedCall/Generator/FlatConv/sequential/instance_normalization/Mean/reduction_indices", "shape": [3], "dtype": "int32"}, {"name": "StatefulPartitionedCall/Generator/FlatConv/sequential/zero_padding2d/Pad/paddings", "shape": [4, 2], "dtype": "int32"}, {"name": "StatefulPartitionedCall/Generator/FlatConv/sequential/conv2d/Conv2D/ReadVariableOp", "shape": [7, 7, 3, 64], "dtype": "float32"}, {"name": "StatefulPartitionedCall/Generator/FlatConv/sequential/conv2d/BiasAdd/ReadVariableOp", "shape": [64], "dtype": "float32"}, {"name": "StatefulPartitionedCall/Generator/FlatConv/sequential/instance_normalization/reduce_std/reduce_variance/Mean/reduction_indices", "shape": [3], "dtype": "int32"}, {"name": "StatefulPartitionedCall/Generator/FlatConv/sequential/instance_normalization/reduce_std/reduce_variance/Mean_1/reduction_indices", "shape": [3], "dtype": "int32"}, {"name": "StatefulPartitionedCall/Generator/FlatConv/sequential/instance_normalization/add/y", "shape": [], "dtype": "float32"}, {"name": "StatefulPartitionedCall/Generator/FlatConv/sequential/instance_normalization/Reshape", "shape": [1, 1, 1, 1], "dtype": "float32"}, {"name": "StatefulPartitionedCall/Generator/FlatConv/sequential/instance_normalization/Reshape_1", "shape": [1, 1, 1, 1], "dtype": "float32"}, {"name": "StatefulPartitionedCall/Generator/ConvBlock/sequential_1/zero_padding2d_1/Pad/paddings", "shape": [4, 2], "dtype": "int32"}, {"name": "StatefulPartitionedCall/Generator/ConvBlock/sequential_1/conv2d_1/Conv2D/ReadVariableOp", "shape": [3, 3, 64, 128], "dtype": "float32"}, {"name": "StatefulPartitionedCall/Generator/ConvBlock/sequential_1/conv2d_1/BiasAdd/ReadVariableOp", "shape": [128], "dtype": "float32"}, {"name": "StatefulPartitionedCall/Generator/ConvBlock/sequential_1/zero_padding2d_2/Pad/paddings", "shape": [4, 2], "dtype": "int32"}, {"name": "StatefulPartitionedCall/Generator/ConvBlock/sequential_1/conv2d_2/Conv2D/ReadVariableOp", "shape": [3, 3, 128, 128], "dtype": "float32"}, {"name": "StatefulPartitionedCall/Generator/ConvBlock/sequential_1/conv2d_2/BiasAdd/ReadVariableOp", "shape": [128], "dtype": "float32"}, {"name": "StatefulPartitionedCall/Generator/ConvBlock/sequential_1/instance_normalization_1/reduce_std/reduce_variance/Mean/reduction_indices", "shape": [3], "dtype": "int32"}, {"name": "StatefulPartitionedCall/Generator/ConvBlock/sequential_1/instance_normalization_1/reduce_std/reduce_variance/Mean_1/reduction_indices", "shape": [3], "dtype": "int32"}, {"name": "StatefulPartitionedCall/Generator/ConvBlock/sequential_1/instance_normalization_1/add/y", "shape": [], "dtype": "float32"}, {"name": "StatefulPartitionedCall/Generator/ConvBlock/sequential_1/instance_normalization_1/Reshape", "shape": [1, 1, 1, 1], "dtype": "float32"}, {"name": "StatefulPartitionedCall/Generator/ConvBlock/sequential_1/instance_normalization_1/Reshape_1", "shape": [1, 1, 1, 1], "dtype": "float32"}, {"name": "StatefulPartitionedCall/Generator/ConvBlock/sequential_2/zero_padding2d_3/Pad/paddings", "shape": [4, 2], "dtype": "int32"}, {"name": "StatefulPartitionedCall/Generator/ConvBlock/sequential_2/conv2d_3/Conv2D/ReadVariableOp", "shape": [3, 3, 128, 256], "dtype": "float32"}, {"name": "StatefulPartitionedCall/Generator/ConvBlock/sequential_2/conv2d_3/BiasAdd/ReadVariableOp", "shape": [256], "dtype": "float32"}, {"name": "StatefulPartitionedCall/Generator/ConvBlock/sequential_2/zero_padding2d_4/Pad/paddings", "shape": [4, 2], "dtype": "int32"}, {"name": "StatefulPartitionedCall/Generator/ConvBlock/sequential_2/conv2d_4/Conv2D/ReadVariableOp", "shape": [3, 3, 256, 256], "dtype": "float32"}, {"name": "StatefulPartitionedCall/Generator/ConvBlock/sequential_2/conv2d_4/BiasAdd/ReadVariableOp", "shape": [256], "dtype": "float32"}, {"name": "StatefulPartitionedCall/Generator/ConvBlock/sequential_2/instance_normalization_2/reduce_std/reduce_variance/Mean/reduction_indices", "shape": [3], "dtype": "int32"}, {"name": "StatefulPartitionedCall/Generator/ConvBlock/sequential_2/instance_normalization_2/reduce_std/reduce_variance/Mean_1/reduction_indices", "shape": [3], "dtype": "int32"}, {"name": "StatefulPartitionedCall/Generator/ConvBlock/sequential_2/instance_normalization_2/add/y", "shape": [], "dtype": "float32"}, {"name": "StatefulPartitionedCall/Generator/ConvBlock/sequential_2/instance_normalization_2/Reshape", "shape": [1, 1, 1, 1], "dtype": "float32"}, {"name": "StatefulPartitionedCall/Generator/ConvBlock/sequential_2/instance_normalization_2/Reshape_1", "shape": [1, 1, 1, 1], "dtype": "float32"}, {"name": "StatefulPartitionedCall/Generator/UpSampleConv/strided_slice/stack", "shape": [1], "dtype": "int32"}, {"name": "StatefulPartitionedCall/Generator/UpSampleConv/strided_slice/stack_1", "shape": [1], "dtype": "int32"}, {"name": "StatefulPartitionedCall/Generator/UpSampleConv/strided_slice/stack_2", "shape": [1], "dtype": "int32"}, {"name": "StatefulPartitionedCall/Generator/UpSampleConv/Const", "shape": [2], "dtype": "int32"}, {"name": "StatefulPartitionedCall/Generator/UpSampleConv/ConvBlock/sequential_12/zero_padding2d_21/Pad/paddings", "shape": [4, 2], "dtype": "int32"}, {"name": "StatefulPartitionedCall/Generator/UpSampleConv/ConvBlock/sequential_12/conv2d_21/Conv2D/ReadVariableOp", "shape": [3, 3, 256, 128], "dtype": "float32"}, {"name": "StatefulPartitionedCall/Generator/UpSampleConv/ConvBlock/sequential_12/conv2d_21/BiasAdd/ReadVariableOp", "shape": [128], "dtype": "float32"}, {"name": "StatefulPartitionedCall/Generator/UpSampleConv/ConvBlock/sequential_12/zero_padding2d_22/Pad/paddings", "shape": [4, 2], "dtype": "int32"}, {"name": "StatefulPartitionedCall/Generator/UpSampleConv/ConvBlock/sequential_12/conv2d_22/Conv2D/ReadVariableOp", "shape": [3, 3, 128, 128], "dtype": "float32"}, {"name": "StatefulPartitionedCall/Generator/UpSampleConv/ConvBlock/sequential_12/conv2d_22/BiasAdd/ReadVariableOp", "shape": [128], "dtype": "float32"}, {"name": "StatefulPartitionedCall/Generator/UpSampleConv/ConvBlock/sequential_12/instance_normalization_19/reduce_std/reduce_variance/Mean/reduction_indices", "shape": [3], "dtype": "int32"}, {"name": "StatefulPartitionedCall/Generator/UpSampleConv/ConvBlock/sequential_12/instance_normalization_19/reduce_std/reduce_variance/Mean_1/reduction_indices", "shape": [3], "dtype": "int32"}, {"name": "StatefulPartitionedCall/Generator/UpSampleConv/ConvBlock/sequential_12/instance_normalization_19/add/y", "shape": [], "dtype": "float32"}, {"name": "StatefulPartitionedCall/Generator/UpSampleConv/ConvBlock/sequential_12/instance_normalization_19/Reshape", "shape": [1, 1, 1, 1], "dtype": "float32"}, {"name": "StatefulPartitionedCall/Generator/UpSampleConv/ConvBlock/sequential_12/instance_normalization_19/Reshape_1", "shape": [1, 1, 1, 1], "dtype": "float32"}, {"name": "StatefulPartitionedCall/Generator/UpSampleConv/strided_slice_1/stack", "shape": [1], "dtype": "int32"}, {"name": "StatefulPartitionedCall/Generator/UpSampleConv/strided_slice_1/stack_1", "shape": [1], "dtype": "int32"}, {"name": "StatefulPartitionedCall/Generator/UpSampleConv/strided_slice_1/stack_2", "shape": [1], "dtype": "int32"}, {"name": "StatefulPartitionedCall/Generator/UpSampleConv/Const_1", "shape": [2], "dtype": "int32"}, {"name": "StatefulPartitionedCall/Generator/UpSampleConv/ConvBlock/sequential_13/zero_padding2d_23/Pad/paddings", "shape": [4, 2], "dtype": "int32"}, {"name": "StatefulPartitionedCall/Generator/UpSampleConv/ConvBlock/sequential_13/conv2d_23/Conv2D/ReadVariableOp", "shape": [3, 3, 128, 64], "dtype": "float32"}, {"name": "StatefulPartitionedCall/Generator/UpSampleConv/ConvBlock/sequential_13/conv2d_23/BiasAdd/ReadVariableOp", "shape": [64], "dtype": "float32"}, {"name": "StatefulPartitionedCall/Generator/UpSampleConv/ConvBlock/sequential_13/zero_padding2d_24/Pad/paddings", "shape": [4, 2], "dtype": "int32"}, {"name": "StatefulPartitionedCall/Generator/UpSampleConv/ConvBlock/sequential_13/conv2d_24/Conv2D/ReadVariableOp", "shape": [3, 3, 64, 64], "dtype": "float32"}, {"name": "StatefulPartitionedCall/Generator/UpSampleConv/ConvBlock/sequential_13/conv2d_24/BiasAdd/ReadVariableOp", "shape": [64], "dtype": "float32"}, {"name": "StatefulPartitionedCall/Generator/UpSampleConv/ConvBlock/sequential_13/instance_normalization_20/reduce_std/reduce_variance/Mean/reduction_indices", "shape": [3], "dtype": "int32"}, {"name": "StatefulPartitionedCall/Generator/UpSampleConv/ConvBlock/sequential_13/instance_normalization_20/reduce_std/reduce_variance/Mean_1/reduction_indices", "shape": [3], "dtype": "int32"}, {"name": "StatefulPartitionedCall/Generator/UpSampleConv/ConvBlock/sequential_13/instance_normalization_20/add/y", "shape": [], "dtype": "float32"}, {"name": "StatefulPartitionedCall/Generator/UpSampleConv/ConvBlock/sequential_13/instance_normalization_20/Reshape", "shape": [1, 1, 1, 1], "dtype": "float32"}, {"name": "StatefulPartitionedCall/Generator/UpSampleConv/ConvBlock/sequential_13/instance_normalization_20/Reshape_1", "shape": [1, 1, 1, 1], "dtype": "float32"}, {"name": "StatefulPartitionedCall/Generator/sequential_14/zero_padding2d_25/Pad/paddings", "shape": [4, 2], "dtype": "int32"}, {"name": "StatefulPartitionedCall/Generator/sequential_14/conv2d_25/Conv2D/ReadVariableOp", "shape": [7, 7, 64, 3], "dtype": "float32"}, {"name": "StatefulPartitionedCall/Generator/sequential_14/conv2d_25/BiasAdd/ReadVariableOp", "shape": [3], "dtype": "float32"}]}]}